examples/models/ODEFuncLayeredResidual.pth (torch_old, 14701 bytes, 10 tensors)

net_y.0.weight f4 [50, 4]
-0.15926625 0.30692384 -0.119684875 0.2439607 0.08763996 0.32196212 0.22712968 0.45828822
0.11315035 -0.46845376 0.09131024 -0.09311264 0.1704904 0.39158887 -0.06760348 0.0066395686
0.10137129 0.38089165 0.05014445 0.24222481 -0.2634409 0.31014472 -0.07200407 0.20707329
-0.19723238 0.5240651 -0.0989434 0.21336864 0.022181684 0.914096 -0.20733075 0.8199026
0.02204245 -0.2511929 0.17656931 -0.38974595 -0.09476002 0.618515 -0.17374182 0.40624043
0.14708002 -0.39711556 0.08884572 -0.24333473 0.13537756 0.35443515 0.37577844 0.46190473
-0.014719385 0.1958751 -0.12810932 -0.20003743 -0.1398175 0.61662006 -0.0097031975 -0.008668048
0.1012226 -0.30627462 0.027258655 -0.44826472 0.0018550544 -0.52059156 0.004243344 -0.23108493
0.08327426 -0.1461944 0.087910846 -0.23765878 -0.062198743 0.13004307 0.05194197 0.46808952
0.056116603 -0.5291608 0.046897598 0.37125662 0.1287669 0.52545214 -0.085850924 0.092706695
0.0016253906 0.5004332 -0.15872866 0.3333136 0.29416263 0.39970714 0.50287503 0.6664902
-0.1611938 -0.16113876 -0.3085242 -0.2760998 0.049697246 -0.33916357 0.10580062 -0.0028693231
-0.19373153 -0.06252258 0.09940367 0.03511542 -0.058747135 -0.27865177 -0.32718506 -0.32592368
-0.32888156 -0.31498554 -0.57886803 -0.54756314 0.016550655 0.30790946 -0.18891998 0.07664209
-0.001595661 -0.12065405 -0.08341401 -0.4995188 -0.123870485 0.3425547 -0.0045423415 0.1460705
0.16685396 0.15985233 -0.08243915 -0.052423235 0.04670669 -0.42468923 0.11586549 -0.103129975
0.077458955 0.3792123 0.43394858 0.38549212 0.21606188 0.10093857 0.37025267 0.36351815
-0.21003887 0.1731623 -0.021433417 -0.14612924 -0.17217086 -0.112665705 0.117812976 -0.20116444
-0.1775609 -0.21750623 0.061450146 -0.28003398 0.07313364 -0.4444701 0.13144243 -0.16260819
0.0607125 -0.4772893 0.18645243 -0.3979357 0.19688511 -0.2207733 0.03745225 -0.27045116
-0.12716192 0.40894383 -0.11498425 0.099862695 -0.11342634 -0.3105867 -0.047862697 -0.305556
0.017544638 -0.08501396 -0.1102724 0.01817403 0.18468738 -0.40300328 0.055911083 -0.03504707
0.15558994 0.45225096 -0.112963945 -0.0952768 -0.09579969 0.43049696 -0.11139899 0.04844145
-0.033460516 0.49503022 -0.10852261 0.00078170834 0.07069512 0.24583542 -0.0666233 -0.32028303
-0.08807064 -0.29174653 0.12737675 -0.20169573 0.021435866 0.47806066 -0.11591002 -0.0065176506
00000000: b116 23be 1f25 9d3e 581d f5bd d5d0 793e
00000010: 947c b33d 38d8 a43e af94 683e c1a4 ea3e
00000020: 5fbb e73d 2cd9 efbe dd00 bb3d d7b1 bebd
00000030: 0995 2e3e 567e c83e b173 8abd bd90 d93b
00000040: c09b cf3d 3b04 c33e 4464 4d3d c809 783e
00000050: bae1 86be 4acb 9e3e df76 93bd 050b 543e
00000060: 49f7 49be 2129 063f d6a2 cabd 4f7d 5a3e
00000070: 5db6 b53c 3202 6a3f 834e 54be 23e5 513f
00000080: 5e92 b43c 5b9c 80be 96ce 343e c88c c7be
00000090: 8b11 c2bd 0057 1e3f 60e9 31be bffe cf3e
000000a0: 259c 163e bb52 cbbe bff4 b53d bd2c 79be
000000b0: 6aa0 0a3e 8678 b53e 0866 c03e c77e ec3e
000000c0: 9329 71bc 7b93 483e 172f 03be 9dd6 4cbe
000000d0: 522c 0fbe d0da 1d3f 29fa 1ebc 6e04 0ebc
000000e0: cb4d cf3d 07d0 9cbe 8b4d df3c f482 e5be
000000f0: 4c25 f33a 7d45 05bf c00b 8b3b 87a1 6cbe
00000100: b28b aa3d fcb3 15be 9a0a b43d d35c 73be
00000110: 1cc4 7ebd 032a 053e 1ac1 543d 6ea9 ef3e
00000120: 86da 653d 1577 07bf b217 403d 5915 be3e
00000130: 78db 033e 0884 063f 9cd2 afbd 02dd bd3d
00000140: 0f0b d53a 641c 003f c489 22be 15a8 aa3e
00000150: 7c9c 963e 6aa6 cc3e 6bbc 003f 1a9f 2a3f
00000160: fd0f 25be 8f01 25be e2f6 9dbe f45c 8dbe
00000170: 578f 4b3d d9a6 adbe ffad d83d 410b 3cbb
00000180: 8f61 46be d70b 80bd 2794 cb3d 30d5 0f3d
00000190: d6a0 70bd 72ab 8ebe cd84 a7be 78df a6be
000001a0: 2a63 a8be c945 a1be b230 14bf 192d 0cbf
000001b0: 3d95 873c 4fa6 9d3e 3d74 41be 87f6 9c3d
000001c0: 8025 d1ba 7819 f7bd f7d4 aabd eec0 ffbe
000001d0: cfaf fdbd 5463 af3e ecd7 94bb 8193 153e
000001e0: c4db 2a3e 54b0 233e dbd5 a8bd bfb9 56bd
000001f0: 844f 3f3d de70 d9be e34a ed3d cf35 d3bd
00000200: cda2 9e3d 1d28 c23e 822e de3e 395f c53e
00000210: 533f 5d3e e2b8 ce3d c291 bd3e 0d1f ba3e
00000220: 6e14 57be 7551 313e 2295 afbc e7a2 15be
00000230: 8f4d 30be 47bd e6bd ee47 f13d 0dfe 4dbe
00000240: 86d2 35be f4b9 5ebe 26b3 7b3d 9d60 8fbe
00000250: 17c7 953d 9691 e3be d898 063e c382 26be
00000260: acad 783d 435f f4be 63ed 3e3e 3abe cbbe
00000270: 409c 493e 6512 62be 8867 193d 9378 8abe
00000280: bc36 02be 1661 d13e dd7c ebbd d084 cc3d
00000290: 124c e8bd 3805 9fbe ad0b 44bd d671 9cbe
000002a0: c6b9 8f3c cd1b aebd 7fd6 e1bd b4e1 943c
000002b0: b01e 3d3e 7256 cebe 0503 653d 848d 0fbd
000002c0: f852 1f3e 708d e73e a459 e7bd 7c20 c3bd
000002d0: a132 c4bd 196a dc3e 2725 e4bd 8b6a 463d
000002e0: e50d 09bd 9a74 fd3e 1a41 debd 8feb 4c3a
000002f0: 9ac8 903d 48bc 7b3e cc71 88bd 23fc a3be
00000300: 615e b4bd cd5f 95be 0d6f 023e 5389 4ebe
00000310: 459a af3c 5ec4 f43e 3c62 edbd 0492 d5bb

net_y.0.bias f4 [50]
-0.024902891 0.019445032 0.023649182 0.018296396 0.022038149 -0.026047584 -0.040635288 -0.13234118
0.03766344 -0.060658738 0.023214702 0.0015057479 0.008524804 -0.031171408 0.02029185 -0.01451564
0.017866138 -0.036977086 -0.012299057 0.013044526 -0.034043886 -0.03001676 0.018953219 0.009264768
-0.017283224 0.022296814 0.027750729 -0.017678471 -0.00046930925 0.0058618193 0.0059639197 0.0041430336
-0.021616057 -0.008722313 0.02298326 -0.010700571 -0.0053280494 0.019223865 0.035310727 0.010889139
-0.016914355 -0.009383676 -0.011935715 0.017459547 0.011704759 -0.0119837895 -0.023716759 -0.001197693
0.013219315 -0.023900623
00000000: 2601 ccbc 304b 9f3c eebb c13c 53e2 953c
00000010: 5989 b43c be61 d5bc 3071 26bd 7284 07be
00000020: fb44 1a3d 4c75 78bd c22c be3c 845c c53a
00000030: 9fab 0b3c 2e5b ffbc 183b a63c 02d3 6dbc
00000040: 025c 923c 4975 17bd fc81 49bc b5b8 553c
00000050: 9a71 0bbd b5e5 f5bc c843 9b3c 41cb 173c
00000060: 8c95 8dbc cfa7 b63c 7f55 e33c 71d2 90bc
00000070: 9f0d f6b9 8114 c03b fc6c c33b 49c2 873b
00000080: 2814 b1bc 08e8 0ebc 6447 bc3c 7351 2fbc
00000090: eb96 aebb 5e7b 9d3c fba1 103d 5c68 323c
000000a0: f98f 8abc fdbd 19bc 048e 43bc 5307 8f3c
000000b0: 51c5 3f3c a857 44bc a649 c2bc e9fb 9cba
000000c0: d395 583c 3dcb c3bc

lin_y.weight f4 [2, 50]
0.1674735 0.13490376 -0.096959114 0.69277817 0.06809174 0.10539221 0.13997948 0.11230516
-0.08081146 0.15800536 -0.1614244 0.072978176 0.07852246 0.123628065 -0.18357624 -0.31665048
-0.15856394 -0.0039034076 -0.3137242 0.44108012 0.18896018 0.1897394 -0.05677634 0.0069013867
-0.075904734 -0.15806077 -0.06574926 0.023677547 -0.031525727 0.19088651 -0.019507857 -0.23971666
0.17487596 0.07033335 0.07292651 -0.16170391 -0.17885587 -0.16127019 -0.1414772 -0.10894869
0.18812458 -0.1141054 0.039527502 -0.14813824 0.23915307 0.06951841 0.012550513 0.2233406
-0.17499772 0.109301545 0.14473006 -0.1145061 0.12416311 -0.3056428 -0.1680839 0.06253529
-0.0399758 -0.09243899 0.10278138 0.051506408 0.107029304 -0.051371865 -0.002703061 -0.032576434
0.0924023 0.0828967 -0.1210014 -0.07835688 0.006090762 -0.17338647 0.082446694 0.09653743
-0.060932465 -0.0947266 0.07435249 -0.041877788 0.014612046 -0.0053386395 0.029152397 -0.026030304
-0.14663301 -0.030311922 0.021514144 -0.10798927 0.043335874 0.010969142 0.17963584 -0.06789845
-0.085479364 0.0016868154 0.10745194 0.10683384 0.12445152 -0.117712796 -0.11798464 -0.05763982
-0.112391785 0.081193246 0.04955885 0.032440234
00000000: 2c7e 2b3e 3624 0a3e 8092 c6bd e959 313f
00000010: af73 8b3d dfd7 d73d c856 0f3e 3f00 e63d
00000020: 7b80 a5bd 28cc 213e 704c 25be 9575 953d
00000030: 62d0 a03d b630 fd3d 69fb 3bbe 0320 a2be
00000040: 965e 22be 50d0 7fbb 75a0 a0be 41d5 e13e
00000050: c77e 413e 0c4b 423e 4f8e 68bd 0725 e23b
00000060: f173 9bbd afda 21be 8ca7 86bd 6af7 c13c
00000070: 1f21 01bd c177 433e f1ce 9fbc 4978 75be
00000080: af12 333e ee0a 903d 7e5a 953d b695 25be
00000090: fe25 37be 0324 25be 66df 10be 7e20 dfbd
000000a0: bba3 403e 18b0 e9bd 97e7 213d 8db1 17be
000000b0: 8be4 743e ab5f 8e3d aba0 4d3c 66b3 643e
000000c0: 9a32 33be 7dd9 df3d 1e34 143e 2d82 eabd
000000d0: 3b49 fe3d 377d 9cbe 301e 2cbe 8112 803d
000000e0: aabd 23bd a750 bdbd 0b7f d23d 62f8 523d
000000f0: 2e32 db3d 4e6b 52bd d725 31bb de6e 05bd
00000100: 6b3d bd3d bfc5 a93d 95cf f7bd 9279 a0bd
00000110: 0495 c73b 398c 31be d0d9 a83d 6bb5 c53d
00000120: 5294 79bd 0500 c2bd 1e46 983d 0b88 2bbd
00000130: 5d67 6f3c c1ef aebb 02d1 ee3c 813d d5bc
00000140: f726 16be b550 f8bc 6e3e b03c 7a29 ddbd
00000150: f580 313d ebb7 333c 75f2 373e 580e 8bbd
00000160: ce0f afbd 2218 dd3a c30f dc3d b3cb da3d
00000170: 70e0 fe3d 6813 f1bd eea1 f1bd bb17 6cbd
00000180: aa2d e6bd a548 a63d 38fe 4a3d 0de0 043d

lin_y.bias f4 [2]
-0.050992813 -0.024290284
00000000: d7dd 50bd 6bfc c6bc

net_x1.0.weight f4 [50, 4]
-0.01999722 0.15781263 -0.10347611 -0.13255906 0.20974548 0.22455311 0.3178134 0.3960047
0.16195661 -0.4279555 0.09559429 0.056015857 0.13716042 0.22773811 0.39828542 0.36543828
-0.05473914 0.64031345 -0.15921874 0.37274358 0.036240667 0.21490441 -0.2002301 0.104287684
-0.020473164 0.16544925 -0.06937461 -0.18841612 -0.07804482 0.2621292 0.009115589 0.43576857
0.14242616 -0.22614005 0.049308714 -0.20759298 -0.11042641 0.4603976 -0.086509615 -0.23542897
0.27598202 -0.01679847 -0.09264433 0.031917594 0.03008527 0.607713 -0.1674741 0.16477907
-0.23671462 -0.30435747 -0.22020914 -0.2986134 -0.32800052 0.42197698 -0.05595903 0.59619594
0.0630485 -0.20747149 0.089602895 -0.5078212 -0.07025008 0.06748435 -0.20947641 -0.41314492
0.19170572 -0.06078722 0.20573851 0.024960589 0.19576634 0.14376767 0.105865456 0.41379026
-0.17155235 -0.1808334 0.11282271 0.1874853 0.35639948 0.30689275 -0.014629519 0.34938803
0.251673 0.3252038 0.3477678 0.63964796 0.41549438 0.19381727 0.6032147 0.45281667
0.07044687 0.20266026 -0.1675622 -0.21090285 -0.06655955 -0.58831316 -0.14890704 -0.23654738
-0.21092457 0.02772018 -0.31326106 -0.23556998 -0.043293785 -0.19813876 0.0073832553 -0.47333968
-0.35282263 -0.09863676 -0.19456127 -0.522133 -0.007212839 0.2874334 -0.13464765 -0.08988324
-0.12508677 -0.1605706 -0.14623252 -0.24642722 0.0687057 0.13484438 0.37539682 0.55490804
0.30643132 0.57723 0.66552395 0.64413744 -0.12316109 -0.15664376 0.0972002 0.29602447
0.3088995 0.058877446 0.4199155 0.31022903 0.022095192 -0.18938434 0.094973974 0.23173028
-0.04955462 -0.064976715 0.017715044 -0.27851254 -0.24973102 -0.19471046 -0.41549468 -0.5867042
-0.04742002 -0.17847063 0.09562978 -0.25931108 -0.16755703 -0.20929088 0.074164435 0.28528374
-0.026256619 0.17286533 0.033388216 0.36583242 0.13793421 0.10061504 0.092412926 -0.08366345
-0.2226821 0.32247424 -0.10181785 -0.030034268 -0.184344 -0.050353345 -0.08299946 -0.12788917
-0.41107953 -0.30457994 -0.43532753 -0.37849763 0.0719317 -0.34901452 -0.016875079 0.08415004
0.07101732 0.4588509 0.07023536 0.27252978 0.028080124 0.58110744 -0.18438713 0.05626286
0.13821757 0.2949515 0.23971893 0.6087256 -0.14734592 -0.051298298 -0.35784012 -0.4426348
-0.14961138 -0.24417157 0.1526371 -0.1444334 -0.043687925 0.36609456 -0.08656418 0.01887495
00000000: 36d1 a3bc a299 213e 48eb d3bd 90bd 07be
00000010: 85c7 563e 40f1 653e 70b8 a23e 21c1 ca3e
00000020: f4d7 253e fc1c dbbe f0c6 c33d e270 653d
00000030: c873 0c3e 2e34 693e 11ec cb3e ba1a bb3e
00000040: 2636 60bd 95eb 233f 3d0a 23be 3fd8 be3e
00000050: 1871 143d e70f 5c3e 1f09 4dbe c894 d53d
00000060: 56b7 a7bc 876b 293e 4714 8ebd 28f0 40be
00000070: f6d5 9fbd cc35 863e 8d59 153c 0f1d df3e
00000080: 2ad8 113e 4291 67be eff7 493d 4193 54be
00000090: 3e27 e2bd 3cb9 eb3e f42b b1bd 4b14 71be
000000a0: 844d 8d3e f29c 89bc 4fbc bdbd 06bc 023d
000000b0: 6275 f63c 1493 1b3f 557e 2bbe d8bb 283e
000000c0: 5165 72be bed4 9bbe 817e 61be dbe3 98be
000000d0: afef a7be 5e0d d83e 4c35 65bd 4ca0 183f
000000e0: 921f 813d 6873 54be b981 b73d 9200 02bf
000000f0: 46df 8fbd 3c35 8a3d fc80 56be bb87 d3be
00000100: 814e 443e 05fc 78bd 1ead 523e 267a cc3c
00000110: f976 483e d537 133e fdcf d83d 51dc d33e
00000120: 6bab 2fbe 642c 39be 980f e73d 25fc 3f3e
00000130: fe79 b63e 0c21 9d3e a6b0 6fbc fde2 b23e
00000140: 49db 803e 1d81 a63e 9f0e b23e f8bf 233f
00000150: aebb d43e 0978 463e 476c 1a3f 96d7 e73e
00000160: 7346 903d 2c86 4f3e 6d95 2bbe ebf6 57be
00000170: 6050 88bd b19b 16bf 167b 18be 7a39 72be
00000180: 9cfc 57be 6e15 e33c c163 a0be 4239 71be
00000190: d354 31bd e3e4 4abe 3cef f13b 9459 f2be
000001a0: 2ba5 b4be 1202 cabd 123b 47be 82aa 05bf
000001b0: ae59 ecbb 782a 933e 13e1 09be b414 b8bd
000001c0: bf16 00be 9f6c 24be fabd 15be 6b57 7cbe
000001d0: 93b5 8c3d a514 0a3e 0334 c03e 740e 0e3f
000001e0: 91e4 9c3e 58c5 133f c75f 2a3f 31e6 243f
000001f0: e23b fcbd 3967 20be e610 c73d 8590 973e
00000200: 1328 9e3e 7a29 713d 2aff d63e 57d6 9e3e
00000210: fa00 b53c f8ed 41be b781 c23d b44a 6d3e
00000220: c9f9 4abd 8312 85bd 241f 913c 3299 8ebe
00000230: 7db9 7fbe 2e62 47be b8bb d4be 3f32 16bf
00000240: 7f3b 42bd 01c1 36be 8cd9 c33d 6cc4 84be
00000250: 1294 2bbe 5950 56be 86e3 973d b610 923e
00000260: 1f18 d7bc 9c03 313e 15c2 083d 634e bb3e
00000270: a03e 0d3e 420f ce3d fd42 bd3d be57 abbd
00000280: c706 64be 581b a53e e085 d0bd 6d0a f6bc
00000290: acc4 3cbe 4f3f 4ebd 9ffb a9bd 61f5 02be
000002a0: 0479 d2be e7f1 9bbe 40e3 debe 71ca c1be
000002b0: ed50 933d 08b2 b2be 9b3d 8abc db56 ac3d
000002c0: 8771 913d 81ee ea3e 8ed7 8f3d 0689 8b3e
000002d0: 4a08 e63c 75c3 143f fbcf 3cbe e273 663d
000002e0: e888 0d3e e203 973e e178 753e 71d5 1b3f
000002f0: d9e1 16be 2a1e 52bd d236 b7be 07a1 e2be
00000300: ba33 19be 1d08 7abe e64c 1c3e 59e6 13be
00000310: 1cf2 32bd bf70 bb3e 9048 b1bd a49f 9a3c

net_x1.0.bias f4 [50]
-0.00967786 0.010436188 0.01506491 0.0005957029 -0.06496081 -0.013829549 -0.010999161 -0.040582094
0.06794091 -0.006640312 -0.0010474882 -0.029792767 0.0076764375 -0.09677375 0.038722467 -0.0019626005
0.008183042 -0.014478422 -0.0146041205 -0.034084514 -0.0015525876 -0.05177163 -0.005641629 -0.03479762
0.0119782435 0.0116366325 -0.019932821 -0.0054392423 -0.015334397 0.014963964 -0.01467914 -0.044874944
-0.024942793 0.005858528 -0.020601533 0.008759125 0.0055895257 -0.023644604 -0.0031003759 0.0036145642
-0.018122047 -0.0045172423 0.0149599165 0.018342482 0.059749674 -0.028814433 0.010386479 -0.007335853
0.019556455 -0.011265976
00000000: e38f 1ebc 8cfc 2a3c d0d2 763c f228 1c3a
00000010: 2c0a 85bd 5595 62bc d335 34bc 6939 26bd
00000020: 9b24 8b3d f996 d9bb df4b 89ba f60f f4bc
00000030: a08a fb3b 5131 c6bd 739b 1e3d f99e 00bb
00000040: 2a12 063c e736 6dbc 1f46 6fbc 349c 0bbd
00000050: 3280 cbba 7d0e 54bd 6add b8bb f387 0ebd
00000060: 6540 443c 93a7 3e3c 284a a3bc ac3b b2bb
00000070: 1f3d 7bbc 6a2b 753c c780 70bc cace 37bd
00000080: d454 ccbc e5f8 bf3b 8cc4 a8bc 6f82 0f3c
00000090: 5728 b73b 54b2 c1bc ad2f 4bbb 53e2 6c3b
000000a0: b074 94bc 6005 94bb 701a 753c f942 963c
000000b0: 13bc 743d 3f0c ecbc 0d2c 2a3c 9861 f0bb
000000c0: dc34 a03c ee94 38bc

net_x2.0.weight f4 [50, 50]
-0.100562714 -0.092012614 0.2427901 -0.23067892 -0.22289087 -0.19768664 -0.12316222 0.014423502
0.06264109 -0.046302315 0.17301065 -0.29911444 0.12786075 -0.27779135 0.13836782 -0.036637995
-0.01716672 0.12455644 0.29955295 -0.19738467 -0.39727724 -0.066303946 -0.11878187 0.3902939
-0.020902514 0.06796081 0.11124933 -0.13287254 0.11336513 -0.019270465 -0.08405648 0.17262891
-0.024966624 0.19553941 0.017059904 0.12576818 0.09532985 0.15792103 0.12095439 0.058824174
-0.12641343 -0.016980996 0.10173706 0.043159444 -0.32795382 -0.093044475 -0.5875058 -0.16237326
0.07152596 -0.2935541 -0.11696625 -0.17907532 -0.0151831815 -0.13413736 0.06652094 0.10076199
-0.020244237 -0.07365625 0.09536872 -0.015599996 0.19397499 -0.38222814 -0.089956194 0.07196688
0.058684636 0.052398723 -0.08857915 -0.2298334 -0.077653214 -0.107986934 -0.4291089 -0.05224029
0.06505152 0.12035991 0.10037715 0.15632766 0.111193195 0.0361264 -0.09867337 -0.19658485
-0.30556697 0.1132713 -0.1086592 -0.23773052 0.008481558 0.23147471 0.020101834 0.021761525
-0.09368977 0.034705885 0.009291109 0.06737978 0.06072493 -0.06698105 -0.022876743 0.038879517
-0.23958632 0.2311976 -0.16806102 0.05235756 0.11984195 -0.034212433 -0.16649213 0.13196
0.074575536 0.07726406 -0.0128817605 0.23782445 0.06010737 0.23542877 -0.17001402 0.2816977
0.075634 0.06766725 0.06650829 -0.07661703 0.07162782 -0.041526787 -0.17649409 0.11476575
0.30256265 -0.12658398 0.11068639 -0.19926211 -0.03137124 -0.065242805 -0.033591058 0.067001596
0.15845725 0.007909518 0.30943087 0.03628245 -0.072737135 0.009084727 -0.08410515 -0.05036569
-0.12203711 -0.13763805 -0.0062662824 0.059114996 -0.033134308 0.124904275 0.065114245 0.053361684
0.26910785 -0.15830243 0.27816814 0.12601382 -0.06984871 0.11806304 0.021702085 0.014971972
0.27813664 -0.08260285 -0.14992853 -0.2542692 -0.2799293 -0.25508687 -0.1083181 -0.079020515
0.2822511 -0.14905049 0.04237743 -0.20579481 0.10921343 -0.07291723 0.03278838 -0.16543145
-0.13792 -0.026881028 -0.23772813 0.055542864 0.12599428 0.37396753 -0.015384383 0.21267954
0.03574167 -0.26310888 -0.06706819 0.012619036 -0.042272955 -0.03499718 -0.06923972 0.0488794
0.07655458 0.062241044 0.13106462 0.19219668 0.14209919 0.071274154 -0.17873499 -0.026392112
-0.056052275 0.14205888 -0.13668852 -0.17326123 -0.46568772 -0.22269256 -0.13898629 -0.23227045
-0.054067705 -0.1597284 -0.15155323 0.031284984 0.2158332 -0.09187589 0.14347334 -0.022127056
-0.11833343 0.15137826 0.103005536 0.17303544 0.2192935 -0.10686372 0.0039299587 -0.057199277
0.004600885 0.053175855 -0.2326159 -0.061587363 0.21699993 0.050606363 -0.00093494414 -0.44810873
-0.032623347 -0.020120252 -0.04008805 -0.14397348 -0.16047284 -0.055559386 0.005178415 -0.09079107
-0.13895328 0.20905593 0.033947557 -0.10427134 0.13396862 -0.1372736 -0.054504048 0.19187774
0.17328975 0.019930689 -0.04555437 0.005148864 0.18345383 0.17676775 0.38837767 0.13089441
0.05707121 0.41392463 0.114676535 -0.16312642 -0.004009483 -0.030423556 0.08549163 0.19095983
00000000: d3f3 cdbd 1c71 bcbd f89d 783e 1837 6cbe
00000010: 813d 64be 5e6e 4abe 793c fcbd 8d50 6c3c
00000020: f949 803d 7fa7 3dbd b429 313e 8725 99be
00000030: eeed 023e ab3a 8ebe 4bb0 0d3e b911 16bd
00000040: 39a1 8cbc 7217 ff3d 015f 993e 351f 4abe
00000050: ec67 cbbe 5dca 87bd e943 f3bd 9ad4 c73e
00000060: c03b abbc 0a2f 8b3d b0d6 e33d bd0f 08be
00000070: fa2b e83d 18dd 9dbc ce25 acbd a2c5 303e
00000080: ce86 ccbc 7c3b 483e 36c1 8b3c 60c9 003e
00000090: 4c3c c33d 0db6 213e efb6 f73d 9ef1 703d
000000a0: 8672 01be bb1b 8bbc 855b d03d f5c7 303d
000000b0: 90e9 a7be 1a8e bebd c866 16bf 2d45 26be
000000c0: 347c 923d b94c 96be 008c efbd 855f 37be
000000d0: e1c2 78bc 4e5b 09be 213c 883d 4d5c ce3d
000000e0: 3ed7 a5bc 17d9 96bd ad50 c33d 2097 7fbc
000000f0: 61a1 463e 68b3 c3be f43a b8bd 5f63 933d
00000100: 4d5f 703d 0ba0 563d fc68 b5bd 7259 6bbe
00000110: a608 9fbd 4128 ddbd 29b4 dbbe eaf9 55bd
00000120: bb39 853d 427f f63d 8992 cd3d 5c14 203e
00000130: 42b9 e33d 47f9 133d 4415 cabd 8a4d 49be
00000140: 4673 9cbe c9fa e73d b788 debd a16f 73be
00000150: 3cf6 0a3c b507 6d3e 9aac a43c 3a45 b23c
00000160: 6ce0 bfbd c227 0e3d bc39 183c 69fe 893d
00000170: b4ba 783d 5c2d 89bd 0268 bbbc 2140 1f3d
00000180: 1e56 75be 10bf 6c3e 3018 2cbe e174 563d
00000190: b26f f53d 5622 0cbd ea7c 2abe 8620 073e
000001a0: 0fbb 983d 9f3c 9e3d 050e 53bc 4188 733e
000001b0: 2533 763d 3d14 713e 2818 2ebe ae3a 903e
000001c0: 00e6 9a3d 2195 8a3d 8035 883d 64e9 9cbd
000001d0: 9bb1 923d fe17 2abd deba 34be 4e0a eb3d
000001e0: 7ee9 9a3e 3b9f 01be 8caf e23d 5e0b 4cbe
000001f0: 217f 00bd 059e 85bd c796 09bd 2238 893d
00000200: 9e42 223e ec96 013c b96d 9e3e e89c 143d
00000210: 35f7 94bd 1bd8 143c 523f acbd 414c 4ebd
00000220: 98ee f9bd fdf0 0cbe 6355 cdbb 9122 723d
00000230: d7b7 07bd d0cd ff3d 9e5a 853d c891 5a3d
00000240: 81c8 893e 081a 22be 0e6c 8e3e c409 013e
00000250: d70c 8fbd 09cb f13d 92c8 b13c 014d 753c
00000260: ed67 8e3e af2b a9bd dd86 19be 932f 82be
00000270: e552 8fbe bf9a 82be e1d5 ddbd 82d5 a1bd
00000280: 3783 903e b1a0 18be f593 2d3d e0bb 52be
00000290: 4aab df3d a155 95bd 1c4d 063d dd66 29be
000002a0: e73a 0dbe 9a35 dcbc 016f 73be ea80 633d
000002b0: a504 013e ac78 bf3e c70e 7cbc aac8 593e
000002c0: db65 123d 35b6 86be 0c5b 89bd 13c0 4e3c
000002d0: 6826 2dbd 3459 0fbd 8ecd 8dbd c435 483d
000002e0: a6c8 9c3d 77f0 7e3d ce35 063e 35cf 443e
000002f0: 7382 113e 2ff8 913d 4e06 37be 4534 d8bc
00000300: 1297 65bd e277 113e 13f8 0bbe 646b 31be
00000310: 9f6e eebe 8509 64be 6c52 0ebe 4ed8 6dbe
00000320: 1976 5dbd d78f 23be c530 1bbe af24 003d
00000330: 6103 5d3e 6d29 bcbd adea 123e cd43 b5bc
00000340: cc58 f2bd e702 1b3e 91f4 d23d 3430 313e
00000350: 7a8e 603e 5edb dabd e2c6 803b ca49 6abd
00000360: 05c3 963b edce 593d dd32 6ebe 0843 7cbd
00000370: 3b35 5e3e 9e48 4f3d 0a17 75ba 826e e5be
00000380: 0fa0 05bd 3ad3 a4bc 5e33 24bd c96d 13be
00000390: fe52 24be 3d92 63bd b2af a93b abf0 b9bd
000003a0: c549 0ebe c212 563e 980c 0b3d 368c d5bd
000003b0: 122f 093e 7391 0cbe a33f 5fbd 997b 443e
000003c0: de72 313e af45 a33c 3897 3abd cdb7 a83b
000003d0: 52db 3b3e 9b02 353e 70d9 c63e 2f09 063e
000003e0: 80c3 693d eeed d33e 88db ea3d 9d0a 27be
000003f0: fb61 83bb d23a f9bc 3c16 af3d f98a 433e

net_x2.0.bias f4 [50]
0.028989842 -0.01301164 0.0014651687 0.023560321 0.032127827 -0.0061852504 -0.016312981 0.044314723
-0.043635327 0.04066884 0.061201043 0.024416877 0.0013559042 0.0031701121 -0.0007716327 0.0050120857
0.0014879373 -0.0032892087 -0.052737556 0.0030996036 0.0039046095 0.037801363 0.015356616 0.0056133196
0.04599458 0.008451016 -1.9099622e-05 0.027883394 0.011344704 0.07818039 -0.00046675437 0.012209592
0.019013548 -0.0022696431 0.010047916 -0.005132496 -0.030119468 -0.012644496 0.04759833 0.037900407
0.012511466 0.0046327617 -0.038159 -0.07181155 -0.025419738 -0.035246406 -0.012124567 0.048471615
-0.018304477 0.017126173
00000000: 1b7c ed3c c62e 55bc e70a c03a 9301 c13c
00000010: 7898 033d a4ad cabb cda2 85bc 5b83 353d
00000020: f5ba 32bd 5f94 263d f2ad 7a3d e705 c83c
00000030: 98b8 b13a a8c1 4f3b 6547 4aba 6c3c a43b
00000040: e406 c33a c48f 57bb 5603 58bd b822 4b3b
00000050: 7ae4 7f3b 9ad5 1a3d 519a 7b3c f0ef b73b
00000060: d064 3c3d 2176 0a3c 2038 a0b7 b76b e43c
00000070: 23df 393c 0a1d a03d b6b6 f4b9 be0a 483c
00000080: 4dc2 9b3c 4bbe 14bb 04a0 243c 7f2e a8bb
00000090: 1abd f6bc dc2a 4fbc 77f6 423d 753d 1b3d
000000a0: e4fc 4c3c 6cce 973b 9d4c 1cbd ef11 93bd
000000b0: 0e3d d0bc 895e 10bd 1fa6 46bc 2c8a 463d
000000c0: 45f3 95bc 304c 8c3c

lin_x.weight f4 [2, 50]
-0.3001046 -0.2910446 0.33334213 -0.2537032 0.3615596 0.25049126 -0.51942116 0.3615771
-0.24598205 -0.22485356 -0.25531375 0.47066486 -0.0740323 -0.13600264 -0.1940482 -0.073311515
-0.33678463 0.22356257 0.34028757 0.30034912 0.041867327 0.5645947 0.30229512 -0.33125556
0.5066101 0.45069063 0.35551885 0.43739128 0.22482781 -0.29956624 -0.3933961 0.52798384
0.23862685 -0.34773603 0.5776735 -0.4342317 -0.38232854 0.30469537 0.50999427 -0.2418849
-0.1994799 0.20908962 0.32377544 0.250126 0.17521204 -0.5006924 -0.39476627 -0.32865113
-0.385984 -0.34882194 -0.06460516 -0.11336833 0.104794025 -0.1319226 -0.13026339 0.114235975
-0.008530888 -0.11495362 -0.036879316 0.05131094 0.0030446106 0.07786186 -0.09970657 -0.07609403
-0.114510424 -0.14689091 0.16481851 0.061486673 0.13094191 0.082333185 -0.1848299 0.009408821
-0.07050086 0.13991044 -0.08259173 -0.053700022 -0.11927642 0.06342088 0.09692089 -0.08981516
0.11918662 -0.010164563 -0.15261827 -0.04818117 0.063771546 0.049474806 0.049822234 0.007797024
-0.08952375 0.014360834 0.052336868 -0.069305055 0.11902571 0.011695843 0.0737777 0.036588766
0.028213521 -0.040064197 0.062729545 0.00964563
00000000: 4fa7 99be cc03 95be d2ab aa3e 63e5 81be
00000010: 571e b93e 6440 803e c9f8 04bf a220 b93e
00000020: b8e2 7bbe 0340 66be 7cb8 82be fcfa f03e
00000030: 3f9e 97bd 4744 0bbe 92b4 46be 5924 96bd
00000040: 096f acbe 96ed 643e 2c3a ae3e 5cc7 993e
00000050: 137d 2b3d 4789 103f 6dc6 9a3e 549a a9be
00000060: 33b1 013f ecc0 e63e 9106 b63e c0f1 df3e
00000070: 4339 663e bf60 99be 376b c9be f329 073f
00000080: 995a 743e 750a b2be 69e2 133f 9e53 debe
00000090: 91c0 c3be 0801 9c3e fc8e 023f adb0 77be
000000a0: 7544 4cbe 971b 563e e5c5 a53e 8410 803e
000000b0: c96a 333e 612d 00bf ce1e cabe f644 a8be
000000c0: b29f c5be ca98 b2be b64f 84bd a82d e8bd
000000d0: 409e d63d b816 07be c463 05be 8df4 e93d
000000e0: 23c5 0bbc ce6c ebbd c40e 17bd 6c2b 523d
000000f0: 1788 473b 0a76 9f3d f532 ccbd 30d7 9bbd
00000100: 7184 eabd 926a 16be 2fc6 283e 73d9 7b3d
00000110: a315 063e 4d9e a83d 0d44 3dbe 7527 1a3c
00000120: c162 90bd af44 0f3e da25 a9bd 8ef4 5bbd
00000130: 3247 f4bd cee2 813d 767e c63d 03f1 b7bd
00000140: 1d18 f43d 4489 26bc f747 1cbe 9e59 45bd
00000150: a89a 823d 18a6 4a3d 6612 4c3d 2e7e ff3b
00000160: 3a58 b7bd b449 6b3c 2f5f 563d cfef 8dbd
00000170: c0c3 f33d ec9f 3f3c c318 973d 1ade 153d
00000180: 0b20 e73c 5b1a 24bd 5978 803d b408 1e3c

lin_x.bias f4 [2]
0.02709828 0.05588724
00000000: 36fd dd3c 05ea 643d
