examples/exp2-models/enc-dec-ode.pth (torch_old, 5078 bytes, 4 tensors)

net.0.weight f4 [50, 10]
0	0xbd13a471	-0.036045495
1	0xbe3b0892	-0.18264988
2	0x3d3730f4	0.04472442
3	0xbe0008e9	-0.12503399
4	0xbd6cfb26	-0.0578567
5	0xbd748827	-0.059700157
6	0xbdc91955	-0.09819285
7	0xbc8203ae	-0.015870895
8	0xbd28f09b	-0.041245084
9	0x3d2cb156	0.04216131
10	0xbe3b1d84	-0.18272978
11	0xbd225c7b	-0.039638977
12	0xbe2320e0	-0.1593051
13	0x3d49fb95	0.049312193
14	0x3dd42d69	0.10360224
15	0xbe305ca0	-0.17222834
16	0xbe4f89aa	-0.20267358
17	0x3d49e661	0.049291972
18	0x3df428ce	0.119218454
19	0x3e1ce155	0.15320332
20	0x3c614363	0.013748976
21	0xbd831b7d	-0.06401727
22	0xbdcbea38	-0.09956783
23	0x3de9a809	0.11409003
24	0xbd845cda	-0.064630225
25	0x3d80109c	0.06253168
26	0xbcc83530	-0.024439424
27	0xbd999d10	-0.075006604
28	0x3df851a7	0.12124949
29	0xbd1a0049	-0.03759793
30	0xba423753	-0.00074087566
31	0x3be954d7	0.0071207094
32	0x3c5bf72f	0.013425632
33	0xbe3d6302	-0.184948
34	0x3dc4958e	0.09598838
35	0xbd1711ca	-0.0368822
36	0x3dda41dd	0.10657094
37	0x3da8e8ea	0.0824755
38	0x3da68899	0.08131523
39	0x3d49f26d	0.04930346
40	0x3d67bc92	0.05657632
41	0xbdc0529e	-0.09390758
42	0xbdd316f4	-0.10307112
43	0xbba57896	-0.0050497754
44	0x3e63a7b0	0.22231936
45	0x3d1d670f	0.038428362
46	0xbc8d2a35	-0.01723204
47	0xbe2b74a5	-0.16743715
48	0x3da9c959	0.08290357
49	0x3d0f7bfd	0.035030354
50	0x3bffadcd	0.007802701
51	0x3db1eeb3	0.086881064
52	0x3b5d6918	0.0033784565
53	0x3d41c44e	0.04730635
54	0xbd707026	-0.058700703
55	0xbc2ea650	-0.010659769
56	0x3d8f0bc3	0.06984665
57	0xbdd71073	-0.10501184
58	0xbdda4c96	-0.10659139
59	0xbe15961b	-0.14608042
60	0x3cb106a7	0.021609617
61	0xbc6d1079	-0.014469259
62	0x3e163f94	0.1467269
63	0xbc9aa136	-0.0188757
64	0xbdd61b7e	-0.104544625
65	0xbcaf7684	-0.021418817
66	0xbdc5453b	-0.09632345
67	0xbe472d06	-0.19450769
68	0x3df8700e	0.12130748
69	0xbe4c3745	-0.19942959
70	0x3ddf7fc3	0.109130405
71	0xbe05c94c	-0.1306507
72	0x3d7409b8	0.05957958
73	0x3d83bfdf	0.06433081
74	0xbcc07f87	-0.02349831
75	0xbd6142a6	-0.0549952
76	0x3e01cfd1	0.12676932
77	0x3d7cbb2a	0.06170193
78	0xbcf841fb	-0.0303049
79	0xbcc05c10	-0.023481399
80	0xbd911ba9	-0.07085354
81	0xbd42c39f	-0.04754984
82	0x3da4398c	0.08018789
83	0x3d19bcc6	0.037533544
84	0x3e0b8b4a	0.13627353
85	0x3da01dcb	0.078181826
86	0xb9ffe7bc	-0.00048810046
87	0xbe13d135	-0.14435275
88	0x3e2b0531	0.16701199
89	0xbe3c0928	-0.18362868
90	0xbd98ccaa	-0.074609116
91	0x3d203ab3	0.03911848
92	0x3d54c7ef	0.051948484
93	0xbd9425f4	-0.072338015
94	0x3c97c171	0.018524857
95	0xbdbe29c3	-0.09285309
96	0xbb882365	-0.00415461
97	0xbd0dde2a	-0.0346357
98	0xbdb888cd	-0.09010468
99	0x3e0df609	0.13863386
100	0xbe2f8d08	-0.17143643
101	0x3d91052e	0.07081066
102	0x3b25f5d1	0.002532352
103	0xbd8b4385	-0.06799988
104	0xbdbd0602	-0.092296615
105	0xbe0f6ec7	-0.14007102
106	0x3ddea939	0.108721204
107	0x3cf79b51	0.030225428
108	0xbdc0b58e	-0.09409629
109	0xbe60e7b9	-0.21963395
110	0x3c6f99cb	0.014624069
111	0x3dc5c4fb	0.09656712
112	0xbce4546f	-0.027872292
113	0xbd499bf6	-0.049221
114	0x3d66d4b0	0.05635518
115	0x3d5b2a10	0.05350691
116	0x3e2804a5	0.16408022
117	0x3e2e78f1	0.17038323
118	0xbd7014bc	-0.058613524
119	0xbc0565d8	-0.008141957
120	0xbb7ad986	-0.0038276627
121	0x3d1d2647	0.038366582
122	0x3e42ce7b	0.19024079
123	0x3da08dee	0.07839571
124	0x3ca2d5a5	0.019877264
125	0xbe0d002b	-0.13769595
126	0xbb16a2ec	-0.0022985293
127	0x3da09f7f	0.078429215
128	0x3e522edc	0.20525688
129	0x3dc64825	0.09681729
130	0x3e1d19e1	0.15341903
131	0x3c017036	0.007900288
132	0xbe1c51a0	-0.15265512
133	0x3dea6a9b	0.11446115
134	0xbb9a4589	-0.0047079963
135	0xbd59276c	-0.05301611
136	0x3e4431bb	0.19159596
137	0x3dd0c9d7	0.10194748
138	0x3e15f257	0.14643227
139	0x3d94a373	0.07257738
140	0x3d0e29f3	0.034707975
141	0x3e70899e	0.23489997
142	0x3e25cad0	0.16190648
143	0x3ddd446d	0.10804067
144	0xbe213008	-0.15740979
145	0x3cb928c8	0.022602454
146	0xbd080ff1	-0.033218328
147	0xbcdc6587	-0.02690388
148	0xbcc28d29	-0.023748951
149	0x3d27f9b2	0.041009612
150	0xbd49d48c	-0.049274966
151	0xbd1d4a4c	-0.038400933
152	0xbde294ff	-0.11063575
153	0xbd5543ec	-0.05206673
154	0xbe90c02f	-0.28271624
155	0xbced448e	-0.028963353
156	0xbe2b2f79	-0.16717328
157	0xbd8d9432	-0.06913032
158	0x3c478eae	0.012180014
159	0xbc811973	-0.015759205
160	0xbdf8e51c	-0.12153074
161	0x3d15a148	0.036530763
162	0x3d3e146a	0.046406187
163	0xbd357833	-0.044304084
164	0x3d3a3cb1	0.045468036
165	0x3cbdf659	0.023188757
166	0xbd6bd914	-0.05758007
167	0xbd991d41	-0.07476283
168	0xbd31ea23	-0.04343618
169	0x3d188e91	0.037245337
170	0x3dadfce1	0.084954984
171	0x3d97164f	0.07377302
172	0xbdf22d31	-0.11825026
173	0x3d2b8de5	0.041883368
174	0x3be0d3dd	0.0068611936
175	0xbe3893e5	-0.18025167
176	0xbdec7df9	-0.11547465
177	0xbd006f05	-0.031355876
178	0xbdbd0817	-0.09230059
179	0xbe069217	-0.13141666
180	0xbd96646c	-0.07343373
181	0xbdd00102	-0.10156442
182	0x3dac934b	0.084265314
183	0x3d3ac79f	0.04560053
184	0x3d39e136	0.045380794
185	0xbd65f3f2	-0.056140848
186	0x3ddff0d3	0.109346054
187	0x3b851f20	0.0040625483
188	0x3c8876b4	0.016658165
189	0x3dd0a1f2	0.101871386
190	0x3d3ed05b	0.046585422
191	0x3e94e082	0.29077536
192	0xbd88b311	-0.06674779
193	0xbc844eae	-0.016150799
194	0x3d462525	0.048375268
195	0xbba2bda6	-0.0049664555
196	0xbd207d20	-0.03918183
197	0x3dd898a8	0.10575992
198	0xbdf756e5	-0.12077121
199	0xbd51fa2f	-0.051263984
200	0x3bc3b720	0.005972758
201	0xbce0494c	-0.0273787
202	0x3d419e5a	0.047270156
203	0x3cf04ee2	0.02933449
204	0xbdb547df	-0.08851599
205	0xbd1a7d1b	-0.037716966
206	0xbd53a078	-0.051666707
207	0xbb824df4	-0.003976578
208	0x3deea8e2	0.116533056
209	0x3e16dba1	0.1473222
210	0xbd256931	-0.04038352
211	0x3c30106f	0.010746106
212	0x3cb40d5f	0.021979032
213	0x3b898cf0	0.0041977093
214	0x3d4a9795	0.049460966
215	0xbd715056	-0.058914505
216	0x3d95de66	0.0731781
217	0x3ccf528c	0.025307916
218	0x3c940537	0.018068893
219	0x3db182d6	0.08667533
220	0x3da3813c	0.07983634
221	0xbce63786	-0.028102648
222	0x3db5e8d0	0.08882296
223	0xbe528a64	-0.20560604
224	0x3e0425b4	0.12905008
225	0x3e2e071d	0.16994901
226	0x3e00de1b	0.12584727
227	0x3da38643	0.07984593
228	0x3db974df	0.090554945
229	0xbcfb4b4a	-0.030675549
230	0x3d0120ab	0.031525295
231	0x3db8962d	0.09013019
232	0x3bcb54e2	0.006205187
233	0xbd9fc8aa	-0.078019455
234	0x3c015273	0.007893193
235	0x3ced2408	0.028947845
236	0x3d30fd51	0.04321033
237	0x3d0433dd	0.032276023
238	0x3dc3e05b	0.09564277
239	0x3e2cd0c6	0.16876516
240	0x3d82f55d	0.063944556
241	0xbd29960c	-0.04140286
242	0x3e712b60	0.23551702
243	0x3bf5bbeb	0.007499208
244	0xbe2c6487	-0.16835223
245	0x3e4f41a4	0.20239884
246	0x3db2b9b8	0.08726829
247	0xbb3365c5	-0.0027373892
248	0x3de5dc63	0.11223676
249	0x3df6d98c	0.120532125
250	0x3e077f26	0.13232097
251	0xbe131863	-0.14364772
252	0x3dbed782	0.093184486
253	0x3db068d9	0.08613748
254	0xbe0dbee1	-0.13842346
255	0xbcba3c5f	-0.022733865

net.0.bias f4 [50]
0	0xbb03e25a	-0.002012393
1	0xbc8639b1	-0.016384931
2	0x3c9aefcd	0.018913174
3	0xbcc6f8ab	-0.024288496
4	0x3c1776d8	0.009244643
5	0xbc4e4fbb	-0.012592251
6	0xbbb17851	-0.005415954
7	0xbc3c1ac6	-0.011480993
8	0x3baf0780	0.0053414702
9	0x3c1f232e	0.009712977
10	0xbcb080cc	-0.02154579
11	0xbc912bc1	-0.017721059
12	0x3bd7d537	0.0065866965
13	0xbd0b8704	-0.034064308
14	0x3be16596	0.006878565
15	0x3c2333f4	0.009961117
16	0x3b2fa24e	0.0026799622
17	0x3c4d302b	0.012523691
18	0x3c8bc81e	0.017063197
19	0xbd007545	-0.031361837
20	0x3ca65005	0.020301828
21	0x3cdcef69	0.026969628
22	0xbc7d64a1	-0.015465886
23	0x3c862cae	0.016378727
24	0x3c0fdcf7	0.0087807095
25	0x3cf0720c	0.029351257
26	0xbb9160ea	-0.004436602
27	0xbcb8006b	-0.022461137
28	0xbcafbb8e	-0.021451738
29	0x39e563e2	0.00043752702
30	0x3cc42164	0.023941703
31	0xbc8ae52f	-0.016954986
32	0x3bcfb334	0.0063385013
33	0x3c871eec	0.016494237
34	0xbcb9ee14	-0.022696532
35	0x3c4b6179	0.012413376
36	0x3baaec42	0.0052161524
37	0xbb0d60f0	-0.0021572672
38	0xbc723295	-0.0147825675
39	0x3d0878be	0.033318274
40	0xbca2c45d	-0.019869024
41	0x3cf76d90	0.03020361
42	0x3c6df2d3	0.014523226
43	0xbbc589d5	-0.0060283937
44	0xbbc987c3	-0.0061502173
45	0xbbb9a7ef	-0.005665771
46	0xbba0a9c7	-0.0049030515
47	0xbbe24649	-0.0069053513
48	0x3c97811c	0.018494181
49	0xbd161899	-0.036644552

net.2.weight f4 [10, 50]
0	0x3d40682e	0.046974353
1	0xbdbb7e29	-0.091549225
2	0xbd5493a0	-0.0518986
3	0xbe0ee6fd	-0.13955303
4	0xbcd2bd67	-0.02572508
5	0xbe555e2d	-0.20836706
6	0x3d9b8ac0	0.07594824
7	0xbbdf2b95	-0.0068106153
8	0xbd200a70	-0.039072454
9	0x3dcd5a74	0.10027018
10	0x3d966e63	0.07345273
11	0xbe984fdf	-0.29748437
12	0x3d9ae971	0.07564057
13	0xbd9ab774	-0.07554522
14	0xbdd85e36	-0.10564844
15	0x3d28595b	0.04110084
16	0xbc9578ea	-0.018246133
17	0x3de09400	0.10965729
18	0xbe022646	-0.12709913
19	0xbdac1a54	-0.08403459
20	0x3d429d4a	0.047513284
21	0x3d88c04b	0.06677302
22	0x3cfbd085	0.030739078
23	0x3d459e7a	0.04824684
24	0x3d88aa27	0.06673079
25	0xbdd34ff8	-0.10317987
26	0xbd0ba321	-0.03409112
27	0xbe62875a	-0.22121945
28	0xbce51383	-0.027963405
29	0xbc26c931	-0.010179804
30	0xbd863d1f	-0.06554627
31	0xbd96a212	-0.07355131
32	0xbda73380	-0.0816412
33	0xbe2a2740	-0.16616535
34	0xbdf34a3b	-0.11879393
35	0xbe090832	-0.13382033
36	0x3d6e656b	0.05820219
37	0x3e1b3204	0.15155798
38	0xbe5b7a8c	-0.21433467
39	0x3c0445a2	0.008073242
40	0xbdfa9a3f	-0.12236451
41	0x3e2a088f	0.16604827
42	0xbdbd4e18	-0.09243411
43	0x3daabec1	0.08337165
44	0xbd5e415a	-0.054261543
45	0x3d15be70	0.03655857
46	0x3e043283	0.12909894
47	0x3d9da124	0.07696751
48	0x3ccf610a	0.025314827
49	0xbe842137	-0.2580659
50	0xbdc560d0	-0.09637606
51	0x3cd6e971	0.02623436
52	0xbc8458ad	-0.016155565
53	0xbe0c89d6	-0.13724455
54	0x3e393831	0.18087842
55	0x3d495f50	0.049163163
56	0x3d1c3ea4	0.038145676
57	0xbd356d83	-0.04429389
58	0xbe5da49d	-0.21644826
59	0x3c3a7a48	0.011381693
60	0x3daaf16b	0.08346828
61	0x3bc38480	0.005966723
62	0x3e0e977c	0.13924974
63	0xbc2a4182	-0.010391595
64	0x3e06b5c2	0.13155273
65	0x3dd542a2	0.104131
66	0x3d5ad78d	0.05342822
67	0x3e4ecd72	0.20195559
68	0xbd957b6d	-0.07298932
69	0xbdbf09fb	-0.093280755
70	0xbaec1ca1	-0.0018013903
71	0x3e07e594	0.13271171
72	0xbd860f76	-0.06545918
73	0x3dad07c5	0.084487475
74	0xbc86fef8	-0.016479
75	0x3e2702ee	0.16309711
76	0xbd9dacec	-0.07698998
77	0xbe21c6c4	-0.1579848
78	0x3dd12621	0.10212351
79	0x3d9b096f	0.07570159
80	0x3e0fea99	0.14054336
81	0xbe06193e	-0.13095567
82	0x3d8fe1c9	0.07025487
83	0xbd23ff9d	-0.040038694
84	0x3db711bf	0.08938932
85	0xbd4533f7	-0.04814526
86	0xbe216338	-0.15760505
87	0x3d68f8c8	0.05687788
88	0xbd1331ef	-0.035936292
89	0x3c9227e7	0.017841293
90	0xbd919d0c	-0.071100324
91	0xbd5cf8c4	-0.05394818
92	0x3dea682c	0.114456505
93	0xbcb09aff	-0.021558283
94	0x3d8a4c84	0.067528754
95	0x3d04d10e	0.032425933
96	0x3e2dfaa9	0.1699015
97	0x3e16c706	0.14724359
98	0x3e251bf2	0.16123942
99	0xbd2f7338	-0.04283449
100	0x3c3d7eb7	0.011565856
101	0x3dd0e278	0.101994455
102	0xbdf995af	-0.12186753
103	0xbd02429f	-0.031801816
104	0xbc8a839d	-0.016908461
105	0x3dbb3d26	0.091425225
106	0x3e2de6ea	0.16982618
107	0x3c49809a	0.012298727
108	0x3dc77ce1	0.09740616
109	0xbdc3bd7e	-0.09557627
110	0xbe1512b5	-0.14557917
111	0x3d97d206	0.07413106
112	0x3dc4a0e3	0.09600999
113	0x3e186169	0.14880909
114	0x3bf3c36c	0.0074390676
115	0x3d9fa805	0.07795719
116	0xbdc2dfee	-0.095153674
117	0x3a62e796	0.0008655725
118	0xbd1d3778	-0.038382977
119	0x3d3d45db	0.046209197
120	0xbe67d3d1	-0.22639395
121	0xbdafb473	-0.0857934
122	0xbcb8e199	-0.02256851
123	0x3d5f9f3f	0.05459523
124	0x3d896560	0.06708789
125	0xbd8a9c98	-0.06768149
126	0x3e7c8623	0.24660544
127	0x3d703f12	0.0586539
128	0x3d955591	0.07291711
129	0x3dfec31e	0.124395594
130	0xbc8c5107	-0.01712848
131	0x3dd5dacf	0.10442125
132	0xbdda332a	-0.1065429
133	0xbd8b14d7	-0.06791084
134	0xbc387173	-0.011257517
135	0xbd730b02	-0.05933667
136	0x3d10a921	0.035317544
137	0x3d6ae1b8	0.05734417
138	0xbe56b25f	-0.2096648
139	0xbd65a8f0	-0.056069314
140	0x3df79678	0.120892465
141	0xbdbe119f	-0.09280705
142	0x3b8ed212	0.0043585384
143	0x3c1f01c0	0.009705007
144	0xbd9cfac8	-0.0766502
145	0xbc50a63f	-0.012734949
146	0x3d3b5b44	0.045741335
147	0x3e24dfe9	0.1610104
148	0xbdc77f25	-0.09741048
149	0x3c947f06	0.018126976
150	0x3ddfb9e5	0.109241284
151	0x3d8b7bc3	0.06810715
152	0xbe9418c0	-0.28925133
153	0xbd80653d	-0.0626931
154	0xbdacba79	-0.08434004
155	0x3e079388	0.13239872
156	0x3d286fdf	0.041122314
157	0xbb943031	-0.0045223464
158	0xbd82fd6a	-0.06395991
159	0x3cfe8db3	0.031073427
160	0x3e24db16	0.160992
161	0xbd30f841	-0.043205503
162	0x3d136c19	0.03599176
163	0x3e226ad4	0.15861064
164	0xbdd5cbb5	-0.10439245
165	0xbddf6d8b	-0.109095655
166	0xbd3a6241	-0.04550386
167	0x3e2cd7c9	0.1687919
168	0xbd369632	-0.04457683
169	0x3e10d5de	0.14144084
170	0x3c40d499	0.011769437
171	0xbd31b526	-0.043385647
172	0xbe1deefd	-0.15423198
173	0x3bd09ac5	0.006366106
174	0x3d20afd6	0.03923019
175	0xbe9119fd	-0.2834014
176	0x3d21b333	0.03947754
177	0x3d2caf6f	0.042159494
178	0x3d4ad72e	0.049521618
179	0x3d8c01fa	0.068363145
180	0x3c97122c	0.018441282
181	0x3cce27c2	0.025165442
182	0x3d421162	0.04737986
183	0xbe169e70	-0.14708877
184	0x3e3e9def	0.18614934
185	0xbe16b0a0	-0.14715815
186	0xbdd54b58	-0.10414761
187	0x3ddbb1b5	0.10727254
188	0xbce866a8	-0.028369263
189	0xbe6e30a5	-0.23260744
190	0xbd019df4	-0.031644776
191	0xbdaa0f10	-0.08303654
192	0x3dd84866	0.10560684
193	0xbd6950fc	-0.056962
194	0x3d60ea42	0.054910906
195	0xbe1afbb6	-0.15135083
196	0x3d165fe1	0.03671253
197	0x3dfbdca1	0.12297941
198	0x3d057752	0.032584496
199	0x3d984625	0.07435254
200	0xbc3a10cd	-0.011356545
201	0x3de4bd7c	0.11168954
202	0xbe90cc15	-0.28280702
203	0x3c978ed1	0.018500717
204	0x3d2ff34f	0.042956647
205	0xbd603bb1	-0.054744426
206	0xbea764a7	-0.3269398
207	0xbcce0965	-0.025150964
208	0xbd989429	-0.07450134
209	0xbcfea7b0	-0.031085819
210	0x3e2629ba	0.16226855
211	0x3e272866	0.16324005
212	0xbe9e68c5	-0.30939308
213	0x3da03edd	0.0782449
214	0x3dc10362	0.09424473
215	0x3cd04d9b	0.02542763
216	0x3e066b7a	0.13126937
217	0x3bf90582	0.0075995335
218	0xbcbff57f	-0.023432491
219	0xbb92c721	-0.0044793044
220	0xbdbaa16d	-0.09112821
221	0x3d8debab	0.06929716
222	0xbc997da4	-0.018736668
223	0xbc43ea9e	-0.011957793
224	0xbe3a3387	-0.18183719
225	0xbd86e606	-0.06586842
226	0x3d486637	0.048925605
227	0xbd3c33fa	-0.045948006
228	0x3d91fcfb	0.0712833
229	0xbd76499f	-0.060128804
230	0xbda27045	-0.0793157
231	0x3e2037bd	0.15646262
232	0xbd9f469b	-0.07777139
233	0x3d8440cd	0.06457672
234	0xbbd621f9	-0.0065348116
235	0xbc880646	-0.016604554
236	0x3e4d49d6	0.20047697
237	0xbdeea47b	-0.11652466
238	0x3d625ea1	0.055266026
239	0x3d86f4b5	0.06589643
240	0xbe469ace	-0.19394991
241	0x3d277253	0.040880512
242	0x3d1ac9ac	0.037789986
243	0x3da4fdc8	0.080562174
244	0x3e08a258	0.13343179
245	0xbc24435e	-0.010025827
246	0xbe0b7538	-0.13618934
247	0x3d4c69e4	0.049905673
248	0x3d17ddda	0.03707681
249	0xbde110fc	-0.10989568
250	0x3d417e1f	0.04723942
251	0x3b3601fa	0.0027772174
252	0xbd850fe9	-0.06497175
253	0xbe0eb7d5	-0.13937314
254	0x3e05c3ff	0.13063048
255	0x3dd62318	0.10455912

net.2.bias f4 [10]
0	0x3ca2adfd	0.019858355
1	0x3b2a41e0	0.0025979206
2	0xbcbdf5fb	-0.023188582
3	0xbc8e3b1e	-0.017362174
4	0xbb8b57ca	-0.0042524086
5	0x3c2464d2	0.010033803
6	0x3cb513e5	0.022104213
7	0xbc71c624	-0.014756713
8	0x3c87bfda	0.016570974
9	0x3c0a6e2c	0.008449119
