examples/exp2-models/enc-dec-decoder.pth (torch_old, 2441 bytes, 4 tensors)

fc1.weight f4 [20, 10]
000000 60 08 0f bd 15 a1 44 3e be e5 96 3d c2 dc 98 be
       -0.034920096 0.19202073 0.073680386 -0.29855925
000010 db f0 89 3e 87 60 cd bd a8 17 28 3e 18 4d 27 3e
       0.2694157 -0.10028177 0.16415274 0.16338003
000020 92 04 2d be 2c a0 fb 3d bc a1 29 bd 56 6f c7 3e
       -0.16896275 0.1228641 -0.041414008 0.3895213
000030 b2 84 5a be 7f 8a 55 be c2 53 5a be 39 b3 8a be
       -0.21339682 -0.20853613 -0.21321014 -0.2708986
000040 ff 84 92 be 6c 87 9d be 87 f9 07 be 40 5c 8c 3e
       -0.28617093 -0.3076738 -0.13278781 0.2741413
000050 87 f9 6d bc 3e 19 1f 3e c8 be 9a be e1 7a 6e 3c
       -0.014524824 0.15536973 -0.3022368 0.014555664
000060 5f d9 43 be 0d a6 58 be af 0d a1 be ec a1 1f be
       -0.19125889 -0.21157093 -0.31455752 -0.15589112
000070 5b 5b 08 3d 49 dc 84 3d fe ee 8a bd 68 e8 11 bd
       0.03329025 0.064873286 -0.067838654 -0.03562203
000080 97 99 99 bc 3a 9e 65 be 50 f6 99 3e 5d 6c 8a be
       -0.018749995 -0.2242364 0.30070734 -0.270358
000090 d2 6d 4e 3d 1c 12 b4 bd 80 98 06 3e c3 d4 a3 3e
       0.0503977 -0.087925166 0.13144112 0.31998262
0000a0 b0 2f 86 3d 61 4f 96 3e 4c 71 fd bd 46 1c 4b 3e
       0.065520644 0.29357436 -0.12375125 0.19835004
0000b0 55 29 8e be 70 81 18 3e 46 70 9c 3e aa 60 f4 ba
       -0.2776591 0.14893126 0.30554408 -0.0018644531
0000c0 5a 94 2c be a5 a1 1f be ec 6f 5a be fd ae 38 3b
       -0.16853467 -0.15589006 -0.21331757 0.0028180473
0000d0 47 f1 af be 9a ed 35 3e 60 e4 8c 3e c0 e3 91 bd
       -0.34363768 0.17766419 0.27517986 -0.07123518
0000e0 a2 ca 2e 3e 06 f6 94 be b6 39 af be 50 d6 bd bd
       0.17069486 -0.2909395 -0.34223717 -0.092693925
0000f0 ad 03 b9 3d 5a ec 66 3e 65 e4 d3 bd ce 4a 8c be
       0.09033904 0.22551098 -0.10346297 -0.2740082
000100 26 9d 6d be 2e 89 80 3e 63 29 4f 3e c4 0c ae bd
       -0.23204479 0.2510466 0.20230632 -0.084985286
000110 1b df 94 3e ae 50 59 be 5a 24 73 be 38 e3 3b 3e
       0.29076466 -0.21222183 -0.23744336 0.18348396
000120 c5 75 c4 bd fd 98 4e 3e 73 ef 3b 3e 33 20 7d 3e
       -0.09592775 0.20175548 0.18353061 0.24719314
000130 fd 7d dd 3d f9 c5 ad bd dc 27 a7 be 4b 6d 15 be
       0.10815046 -0.08485026 -0.32647598 -0.14592473
000140 df 21 7d bd 7b 1e 93 3e 78 06 e3 bd b1 55 06 3e
       -0.06179988 0.28734192 -0.11085218 0.13118626
000150 5f f5 0e 3d 08 b5 9c bc d9 c2 04 be bc e0 4d be
       0.034901973 -0.019129291 -0.12964953 -0.2010526
000160 f5 36 39 3c 4c 28 85 be d0 97 25 3e 1d b5 77 be
       0.011304607 -0.26007307 0.16171193 -0.24190183
000170 71 0e 79 bd 56 75 df bd 43 60 af 3d 8e ac 00 3e
       -0.060804788 -0.10911052 0.08563282 0.12565824
000180 16 05 60 3c eb a4 85 3c 54 67 89 be 69 58 e9 bd
       0.013673088 0.01631399 -0.26836646 -0.11393816
000190 e6 4b 80 3e 84 6a ff bc e6 2e e2 bd 76 ff a9 3e
       0.25057906 -0.03117872 -0.110441014 0.33202714
0001a0 03 71 1e 3b 59 ca 85 3e 20 23 dd 3d 60 f7 f2 bd
       0.0024176247 0.26130942 0.10797715 -0.11863589
0001b0 a8 ee 6f be 15 5e c5 bd 16 89 74 3d 08 60 41 be
       -0.23430884 -0.09637085 0.059701048 -0.1888429
0001c0 dc 04 24 be 30 f9 a0 3e f1 52 21 bd 9f d1 df bd
       -0.16017479 0.31440115 -0.03938574 -0.10928654
0001d0 89 9c c3 3d 09 ce 97 bd 40 38 25 be 3c 4f e2 bd
       0.09551341 -0.07412345 -0.16134739 -0.11050269
0001e0 d1 25 00 3e 4c dc ad 3e 66 05 1d be c5 2a 75 be
       0.12514426 0.33957136 -0.1533409 -0.23942097
0001f0 2f 52 5b be a8 23 f6 3d 2c d2 37 be 74 44 2f be
       -0.2141807 0.1201852 -0.17951268 -0.17115957
000200 b4 50 e4 3d ea f3 6b bc 9f 96 23 be bc b1 1b be
       0.111482054 -0.014401415 -0.15975426 -0.15204519
000210 8d 8d 72 be ab e4 0f be 3a 42 19 be 43 bf c7 3c
       -0.2368681 -0.14052074 -0.1496667 0.024383193
000220 3f 0f 9e be 45 16 81 be e7 b0 c0 bd 68 32 fa bd
       -0.30871007 -0.25212303 -0.094087414 -0.122166455
000230 02 bf 06 3e 70 3b 51 3e 13 9d a8 bd a6 a2 27 bd
       0.13158801 0.2043283 -0.082330845 -0.040926598
000240 ca 4c 51 3d 20 9d 56 be f3 a5 6d 3e fa fc a5 3e
       0.051098622 -0.20958376 0.23207836 0.32419568
000250 5a 57 9f 3d 4d b9 8e 3e 2b 07 b7 3e 59 c9 94 bd
       0.07780333 0.27875748 0.35747656 -0.072649665
000260 4b 59 41 3e 44 8b 48 be ca 26 84 be 3d 3d 92 3e
       0.18881719 -0.19584376 -0.25810844 0.28562346
000270 0a 3e b1 3e de 84 33 3e 15 ec 04 be ca 77 10 3e
       0.34617645 0.17531154 -0.12980683 0.14108196
000280 a2 f8 8e 3e 20 0c 37 3d 17 04 a7 be 88 b7 98 3e
       0.27924067 0.044689298 -0.32620308 0.29827523
000290 07 cf c8 bd a8 9d 4a bd 6f 56 a0 be b2 d2 61 3e
       -0.09805112 -0.04946676 -0.31315944 0.2205303
0002a0 17 1f 17 3d 5c 7d 6b be 84 31 bd 3d 21 aa 8c be
       0.036894884 -0.2299704 0.0923796 -0.27473548
0002b0 47 06 e8 ba 56 a2 e1 3d f7 36 73 3e e3 83 d3 bd
       -0.0017702066 0.11017291 0.23751436 -0.1032789
0002c0 b2 d4 7b 3e a8 48 55 3e 2b 8e 59 be 73 6e fb bd
       0.24592856 0.20828497 -0.21245639 -0.12276926
0002d0 63 50 82 3e 54 cc 9b be 6e c4 2a be 49 6e 7c be
       0.25451955 -0.30429327 -0.16676494 -0.24651445
0002e0 be 97 35 3d 6f 79 63 3d 8f d4 75 3e 43 c0 15 be
       0.044334166 0.05553573 0.24006866 -0.14624123
0002f0 ea c5 aa 3d 67 c0 aa bd 82 fa 15 be af 86 b1 3b
       0.0833853 -0.08337479 -0.14646342 0.005417667
000300 33 d7 89 3c e8 62 5f bd d8 d8 ad 3e 2c c3 c1 3d
       0.016826248 -0.054537684 0.339545 0.09461054
000310 9c 03 95 3d 95 df 22 be d2 d7 2c 3e 90 b7 4c be
       0.07276079 -0.15905602 0.16879204 -0.19991899

fc1.bias f4 [20]
000000 d8 fc 6d 3d b2 75 e1 3d c2 8f 58 3d cc 8c 87 3d
       0.05810246 0.11008777 0.052871473 0.06618652
000010 fd 78 61 be b8 26 fb 3d 7a 41 5b 3e c9 3c 86 be
       -0.2201881 0.122632444 0.21411696 -0.2621825
000020 b2 78 7c be 46 81 d9 3d 21 92 25 3e 18 8f 99 bd
       -0.24655417 0.1062036 0.16169025 -0.07497996
000030 a4 b9 18 be 5f 86 44 3e 05 70 81 be 1b c7 32 3e
       -0.14914566 0.19191884 -0.25280777 0.17458765
000040 06 ef 63 3e 42 30 48 be 52 d5 db 3d df 50 cb bb
       0.22259149 -0.19549659 0.10734047 -0.006204709

fc2.weight f4 [9, 20]
000000 03 3b 38 be 06 7a cf bc 29 b2 e7 3c 18 a9 c5 3c
       -0.17991261 -0.02532674 0.028283196 0.024128482
000010 80 7a 48 3d 5a b9 31 3e a1 35 11 bd ff d8 22 3e
       0.04894495 0.17355862 -0.035451535 0.1590309
000020 1e 23 b4 bc 20 0e 0c be eb 69 a8 3c c8 cb 4b be
       -0.021989401 -0.13677263 0.020558318 -0.19901955
000030 1f 78 13 3e 37 f3 0a be 85 2b 14 be 9c 9c 14 bd
       0.14401291 -0.13569342 -0.14469726 -0.036282167
000040 d5 d7 09 3e 60 87 05 be d9 96 31 be 73 e0 ec 3d
       0.1346124 -0.13039923 -0.173427 0.11566248
000050 ee 8d fc 3c de 0b 2c be f5 22 6e bc c2 cf 1e bd
       0.030829396 -0.16801402 -0.014534702 -0.038772352
000060 08 ef 00 be 1c 14 66 3e c3 eb a7 bd 29 fc c1 3d
       -0.12591183 0.22468609 -0.08199265 0.09471924
000070 af e2 32 3e 89 98 f1 3d 7e 7d 83 bd 8e e2 10 be
       0.17469285 0.11796672 -0.0642042 -0.14148924
000080 88 72 6b be 91 9d 23 3e da a5 19 be 7d 9f 95 3b
       -0.22992909 0.15978076 -0.15004674 0.0045661316
000090 1d 01 e9 bd 29 10 57 3e 10 2b 88 bd 80 c1 2f bd
       -0.113771655 0.21002258 -0.066488385 -0.042909145
0000a0 7e 28 d5 3d e9 84 46 3e e1 6e 9b 3e 4a 0c bc bc
       0.10408114 0.19386639 0.3035803 -0.022955079
0000b0 a6 93 ee 3d 03 27 0c bc 66 62 a6 3c 98 fa 45 bc
       0.116492555 -0.008554223 0.020310592 -0.012083672
0000c0 34 44 1a be bf ba 34 be 55 da cc 3d f0 65 53 bc
       -0.1506508 -0.17649363 0.10002581 -0.012902722
0000d0 3a 43 2d 3e aa 38 22 3e 00 29 0f bc a8 a4 63 bc
       0.16920176 0.15841928 -0.0087378025 -0.013894238
0000e0 56 f4 2c 3e ce da c3 3d 66 30 4a be 8f ee 14 bd
       0.16890082 0.09563218 -0.19745025 -0.03636032
0000f0 1d 78 39 be 03 dd 28 be ca e6 52 3d bb 5a 5d bd
       -0.18112226 -0.1649056 0.05148963 -0.054041605
000100 a3 2d 33 be 62 fd 02 3e 30 e9 be 3d 83 b2 78 bd
       -0.17497878 0.1279197 0.09321821 -0.060717117
000110 d7 e8 96 bd 4f 49 0f bd da 6b e5 3d 16 db 4c 3d
       -0.073686294 -0.034982022 0.11202212 0.050013624
000120 e3 eb f3 3d 26 29 1c 3e 51 e6 2a be 5e 05 0a 3d
       0.11910226 0.15250072 -0.16689421 0.033696525
000130 d1 24 f5 bd 62 ac 8e 3d ef 72 5e b8 11 8e c6 bd
       -0.11969913 0.06966473 -5.3035965e-05 -0.09695066
000140 07 e3 29 3e c9 0f 13 3e e7 cd 89 bd ef 8d cc 3d
       0.1659051 0.1436149 -0.06728726 0.09988009
000150 83 f3 aa bc f4 79 1c 3e 8a a3 0d be 2a b4 3c be
       -0.020868069 0.15280896 -0.13831916 -0.18428102
000160 3e a9 52 be ca 8a 48 be 1d e4 ba 3d 56 5a 46 be
       -0.20572373 -0.19584194 0.091255404 -0.19370398
000170 ca 4b e8 bd ca e7 3b bd df 0b a2 3c 04 65 71 3e
       -0.113425806 -0.04587535 0.019781051 0.2357369
000180 ef 48 6b 3e cc 4f 1f 3e df 05 52 be 2b 0c 3a be
       0.2297704 0.15557784 -0.20510052 -0.18168704
000190 70 67 17 3e ed b0 1e 3e be c3 03 3c f2 34 b9 3d
       0.14785552 0.1549718 0.008042274 0.09043302
0001a0 6a a1 2b be 29 02 40 3e de f3 28 bd a3 61 02 bc
       -0.16760793 0.18750824 -0.041248195 -0.007957849
0001b0 d8 ce 3c be 5b d7 4a 3e 10 1d d9 bd 24 0c a4 bd
       -0.1843828 0.19808714 -0.10601246 -0.08010128
0001c0 65 5f e7 3a dc 04 0e be 97 19 ff bd 55 0e 9e bd
       0.0017652331 -0.13869041 -0.12456053 -0.07717577
0001d0 13 14 3e bd e5 dc 40 be ad 67 e6 3d fd 0d ec bc
       -0.046405863 -0.18834265 0.11250243 -0.028815264
0001e0 15 e1 07 3e 6c 5f 51 3e 8c 33 de 3d 06 61 82 3e
       0.13269456 0.20446557 0.108496755 0.25464648
0001f0 93 03 a6 bb 08 ab cf 3d 9b b6 5f be dc 67 22 bd
       -0.005066344 0.101400435 -0.21847002 -0.03964983
000200 9b 63 19 be ed ad 06 3d af e0 c6 bc 83 54 35 3e
       -0.14979403 0.032880712 -0.02427706 0.1770802
000210 23 72 98 3c 57 8c 0b be 4c 85 13 be 50 59 69 be
       0.018609112 -0.13627754 -0.14406317 -0.22787976
000220 4c 3d e5 bd f1 0d ab bd 39 0f a3 3d e4 c4 84 bc
       -0.11193332 -0.083522685 0.07961888 -0.016207166
000230 10 9a 88 bc a0 50 31 be d2 2f 76 3c d2 40 dd bc
       -0.016675025 -0.17315912 0.01502605 -0.027008448
000240 50 92 33 3e ea 40 c8 bd 39 98 bb bd 2c 42 04 be
       0.17536283 -0.097780064 -0.091598935 -0.12915868
000250 f7 fe d4 bc 99 27 08 3e 94 31 d9 bc dd e6 f7 3c
       -0.026000483 0.13296355 -0.026512899 0.030261451
000260 b0 b9 3e 3e 20 ea 04 be b6 10 14 bd a5 db 22 be
       0.18625522 -0.12979937 -0.03614875 -0.159041
000270 23 65 0b be d5 4f 45 bc ce 4a 78 bd b4 e1 f4 bd
       -0.136128 -0.012042959 -0.060618214 -0.11957112
000280 ca db d0 bd fd 35 da bb d9 36 24 be 6a 33 81 bd
       -0.101981714 -0.006659268 -0.16036548 -0.063086346
000290 91 31 41 3e 07 7d 04 be aa 0e 85 be 0f f1 06 3e
       0.18866564 -0.12938319 -0.2598775 0.13177894
0002a0 b1 0e 2f 3e f1 6e ba 3c fe cb 89 be a4 7c 32 bd
       0.17095448 0.02275798 -0.26913446 -0.043575898
0002b0 8a a8 01 be 57 ed 5e 3d a4 a7 8a bc fa b3 38 bd
       -0.12661949 0.054425564 -0.01692564 -0.045093514
0002c0 ce 50 ff 3d 79 ff 8a bc 9c d1 87 bd 89 13 1b 3e
       0.12466584 -0.016967522 -0.06631777 0.15144171

fc2.bias f4 [9]
000000 4f 57 7a 3d b2 41 0d be 93 37 28 bd 6e 78 40 be
       0.06111842 -0.13794592 -0.041068625 -0.1879594
000010 04 b1 e6 bd 11 01 2b be a3 f0 7d 3d 36 e8 12 3e
       -0.11264232 -0.16699626 0.061997067 0.14346394
000020 89 21 f4 3d
       0.11920459
