examples/exp2-models/enc-dec-encoder.pth (torch_old, 52678 bytes, 6 tensors)

lstm.weight_ih_l0 f4 [200, 10]
000000 de a3 23 3e 1e d5 49 be 22 85 50 3d 5d f8 27 bd
       0.15980479 -0.19710204 0.050908215 -0.041008342
000010 d1 d4 c2 bd 88 9d e7 3d a9 da 3f bc 00 1d ca bd
       -0.09513248 0.113093436 -0.0117098475 -0.098688126
000020 3c ee 7c bc 96 05 a3 3d 64 54 a5 3d 69 fe 0f 3e
       -0.015437659 0.0796005 0.08072737 0.14061894
000030 e5 ac 14 3c a1 1a 9a bb 1c ed aa 3d 1c e6 93 39
       0.009074424 -0.0047028814 0.08346006 0.0002820947
000040 3f 8e 2d 3e cf 70 e0 bd 3e 07 a9 3c 70 18 2b bc
       0.16948794 -0.109590165 0.020633336 -0.010442838
000050 45 39 cb bd 42 6f 0f be 6f 30 c8 3d ac a2 31 bd
       -0.09923033 -0.14007285 0.09774863 -0.043368027
000060 b6 f8 94 3b ed e9 d5 bc 7b 2a 33 bd 70 ee d3 bd
       0.00454625 -0.026112521 -0.043741684 -0.10348213
000070 7f 75 66 bd 00 30 25 b9 b4 72 8c 3d 42 15 af 3b
       -0.056264397 -0.00015753508 0.068578154 0.0053431103
000080 4d f0 43 3c 8e 03 d6 bd 95 54 b5 3d 00 b4 d9 bc
       0.011959148 -0.10449897 0.08854023 -0.026575089
000090 0a 9b 01 3c c1 7a 47 bd 51 7d 80 bc 54 a1 9f 3d
       0.007910499 -0.04870105 -0.015684756 0.07794443
0000a0 1e dd f2 39 90 a3 e3 bc b2 9b c9 3d 7f c7 17 3d
       0.00046322582 -0.027787954 0.0984415 0.03705549
0000b0 67 74 12 be 58 1e 99 3d a1 6d d2 3d ad a8 ea bb
       -0.14302216 0.07476491 0.10274816 -0.007161221
0000c0 5d 8e c8 3c 6e e8 ed 3d 08 20 95 3d e5 b7 7b 3d
       0.024481947 0.11616598 0.072815 0.061454672
0000d0 fe 90 52 bd 89 19 03 be e2 44 b0 bd e0 dc fa bd
       -0.051407807 -0.1280271 -0.08606888 -0.1224916
0000e0 1b c7 ef 3d 0c 3d b3 bd cf fb 25 3e 18 77 5b 3d
       0.11707898 -0.08751878 0.16209339 0.053580374
0000f0 74 dc ba 3c ee fb 1e 3d ef b6 6d bd 17 8b bd 3c
       0.022810198 0.038814478 -0.058035787 0.023137612
000100 5b 94 69 bc fe 5e 94 bc d8 3f f0 bd 16 b9 c3 bb
       -0.014256562 -0.018111702 -0.11730927 -0.0059729917
000110 5d 31 f8 bd 9c df 98 bc 50 55 d1 3d c6 80 3e 3d
       -0.1211879 -0.018661313 0.1022135 0.046509527
000120 ce 2b 27 3e 05 0b 8a 3d a0 de b5 3d 64 74 66 3c
       0.16325304 0.06740383 0.08880353 0.014065836
000130 3d 8a ed bc a4 2f 76 3d f9 b1 ae 3d 42 f4 b0 bd
       -0.028996581 0.060104027 0.08530039 -0.086403385
000140 6f a3 cc 3d ef b3 04 3e 75 c1 00 3e 1a 30 3d 3d
       0.0999211 0.12959264 0.12573798 0.04618845
000150 cb 96 b1 3d 5e 66 f7 3d b7 7d 61 3e e3 a9 2b be
       0.086713396 0.12080072 0.22020613 -0.16764025
000160 63 e7 db bc 50 45 1a bc 0f 4b 54 bb 02 27 dc 3d
       -0.026843732 -0.009415939 -0.0032393371 0.10749628
000170 4c 0a bf 3d 18 ba 7d bd 2d 98 68 bd 16 e8 2e bd
       0.09328136 -0.06194505 -0.05678575 -0.042701803
000180 a0 41 c2 3d 43 17 97 bd 95 5a 08 be a8 87 e3 bd
       0.09485173 -0.07377484 -0.13315804 -0.11109859
000190 71 cb 16 3d 70 c3 1e 3d d3 c0 e8 3d 19 6c 26 3e
       0.03681511 0.038760602 0.11364903 0.16252173
0001a0 93 1a c4 3d c0 62 2b 3b c8 f4 4c 3d b9 46 2e 3c
       0.09575381 0.002615139 0.05003813 0.010636979
0001b0 11 46 f9 bd 09 a2 02 3e e2 12 da 3d 66 13 4d 3e
       -0.12171567 0.12757124 0.10648133 0.20026931
0001c0 dd d4 82 bd 5f ae a2 3d 6c 3e bf bd 0e 27 a2 bc
       -0.06388257 0.07943415 -0.09338078 -0.019794013
0001d0 1b c0 84 3d 07 72 de 3d 2d dd 2a 3d f8 67 9d 3c
       0.06481954 0.10861593 0.041714836 0.019214615
0001e0 cc b6 1a 3e 02 f2 e3 3d 14 e2 09 bd 50 c8 9a 3c
       0.15108794 0.11130144 -0.03366287 0.018894345
0001f0 ae af 1a bd 74 f0 e8 3d fe b5 91 bc 9b 61 a0 bd
       -0.037765197 0.11373988 -0.017786976 -0.07831117
000200 75 51 16 bd c0 54 80 3c fe 87 42 3e db 16 99 bd
       -0.036698777 0.015665412 0.1899719 -0.074750625
000210 3d b6 51 3e 52 a9 75 3c 6a 0c 9c 3d fe d0 a8 bd
       0.20479675 0.014993982 0.07619555 -0.08242987
000220 11 b7 1a 3e 62 05 45 bd 9f 0c d8 bd c2 b0 a5 bd
       0.15108897 -0.048100837 -0.10549282 -0.080903545
000230 47 a4 95 3d e4 8d 32 bd 6c 7f a3 bd 1d 42 92 bd
       0.07306724 -0.04359235 -0.07983288 -0.07141516
000240 bd e3 9f bb dd 4c 47 bd bd 39 42 bd 8a a1 10 3b
       -0.0048794434 -0.048657287 -0.047418345 0.002206894
000250 10 52 fd bd 6c 5c 7a 3d 90 6d 9b 3d 0c d0 ed bd
       -0.12369168 0.061123297 0.07589257 -0.116119474
000260 65 42 19 3d 91 b8 9f 3c f7 d7 f4 3d 68 15 d3 bd
       0.037416834 0.019497188 0.119552545 -0.10306817
000270 59 97 57 3d bf de a1 3c 60 74 6c bd 57 ab 06 3e
       0.05263457 0.019759534 -0.05772817 0.13151298
000280 3d 31 2f 3d c4 55 17 be 73 ff 93 bc 78 13 80 3d
       0.042771567 -0.1477881 -0.018066144 0.06253713
000290 9c bd 9e bd 55 14 97 bc 4f c9 11 be 43 d6 f4 bb
       -0.07751009 -0.018442312 -0.1423695 -0.007471831
0002a0 f8 01 f3 3d 4a d3 e4 3d 10 0e 24 3e e4 bf 8a bd
       0.1186561 0.11173113 0.1602099 -0.067748815
0002b0 18 99 10 bd ca ef b4 3d b5 68 0d be 38 a1 f7 bd
       -0.03530225 0.08834799 -0.13809474 -0.12091297
0002c0 3d dc 80 bd 7a 4c 73 3d e1 6a c3 bd 30 5e b7 3d
       -0.06292007 0.059399106 -0.0954187 0.08953512
0002d0 68 86 cf 3d d3 df cf 3d 6c 15 d0 3d 56 d3 50 3d
       0.10133058 0.10150113 0.10160336 0.050982796
0002e0 f0 45 b1 bd 0e 72 7c bc c6 fb 92 3d 8f 69 e6 bc
       -0.08655918 -0.015408052 0.07176928 -0.028126506
0002f0 1d 47 06 be 24 35 ad bc 5f 8b 2e bd e7 35 db 3b
       -0.13113065 -0.021143503 -0.042613383 0.0066897753
000300 fd e8 1e 3e 4f af 46 bd 1d d4 39 bb 3a a2 46 3c
       0.15518565 -0.04850703 -0.002835519 0.012123639
000310 7e 4f 37 3e 3b ff 01 3e 13 e1 4c bd a6 b1 08 be
       0.17901418 0.12695019 -0.050019335 -0.13349018
000320 a9 b4 a0 3d 8b 15 13 3d d8 39 0d 3d 51 cf 08 be
       0.07846958 0.035909217 0.034478992 -0.13360335
000330 ed e2 4b bd d3 a1 1c be bc 72 6f bd 92 1b fd 3c
       -0.04977696 -0.15296106 -0.05845903 0.030896936
000340 37 73 69 3d e4 1d cc 3d 90 d7 a4 3d 18 3e 0c be
       0.056994643 0.09966639 0.08048928 -0.13695562
000350 67 c6 92 3d e3 7b db bc 58 32 12 3d 19 cf 15 bd
       0.071667485 -0.026792472 0.035692543 -0.036574457
000360 53 a5 5c be c4 36 02 be 21 b8 9e 3d 60 29 95 3d
       -0.21547441 -0.12716204 0.077499636 0.07283282
000370 8a a5 09 be 93 c6 c0 3d 91 c3 70 bd 08 1b b8 3d
       -0.13442054 0.09412875 -0.058780257 0.08989531
000380 ef cf 52 3d a0 08 d4 bd ab d3 ad bd 32 40 0b 3c
       0.051467832 -0.103532076 -0.08487638 0.008499192
000390 4c dc 5e 3d cd 14 87 bd d5 55 50 3d 43 24 9c 3d
       0.05440931 -0.06595764 0.050863106 0.07624104
0003a0 87 db 9e bd 86 c1 d3 3d a4 93 2b 3d 80 0d b9 3d
       -0.07756715 0.10339646 0.041888848 0.09035778
0003b0 8b 90 19 3e 47 04 41 3c 3c 4d 01 3d 24 ef 02 3d
       0.14996545 0.011780805 0.031567797 0.031966344
0003c0 44 11 b2 bd df 21 dd 3d fd 2b d6 bd 6b 41 99 bd
       -0.086946994 0.10797476 -0.10457609 -0.074831806
0003d0 3a a3 6e 3d 49 c1 27 bd b8 84 1b 3e b1 cf 0f 3c
       0.058261134 -0.040955815 0.15187347 0.008777545
0003e0 50 3d f7 bc 49 12 86 bd d8 a2 8e bd 13 91 82 bb
       -0.030180603 -0.06546456 -0.06964654 -0.0039845794
0003f0 c5 86 ea 3b e9 78 f2 3c d8 57 03 3d b6 2c 1b be
       0.007157179 0.02959867 0.032066196 -0.15153775

lstm.weight_hh_l0 f4 [200, 50]
000000 24 3d 1a 3d ce 05 ad 3d f0 f9 7f 3d 20 c0 a1 bb
       0.037655964 0.08448373 0.06249422 -0.004936233
000010 dc 6b ba bd e2 2b 9b 3d 8a ba 09 be a6 79 09 be
       -0.09102604 0.07576729 -0.13450065 -0.13425311
000020 20 b3 90 3c ae 6b aa bd 35 c4 92 bd 90 80 3f 3d
       0.017663538 -0.083213195 -0.0716633 0.046753466
000030 ce 97 cf bd 80 55 e5 3c 65 bf 90 bd 34 2f b7 3d
       -0.10136376 0.027994871 -0.070677556 0.0894455
000040 ce 70 31 bd 7c 77 fe bc 2d 64 05 3e 80 8b 02 bb
       -0.04332047 -0.031062834 0.13026495 -0.0019919574
000050 09 d0 fe bd 46 cc f7 bd 3c 53 a4 bd f1 ea 0d be
       -0.12442023 -0.12099509 -0.08023688 -0.13859154
000060 d4 fd 93 bc 55 fd 01 be 83 fb e9 bd 6e 01 9d 3d
       -0.01806537 -0.12694295 -0.11424925 0.07666288
000070 38 a3 bf bd 48 c4 b4 bd 86 65 44 bd cd 62 03 be
       -0.093573034 -0.088265 -0.047948383 -0.12830658
000080 90 f0 8b 3d 9c f3 3f bd 0c c3 ff bc be 11 85 3d
       0.06832993 -0.046863183 -0.031220935 0.06497525
000090 c0 22 43 3c a8 74 68 3d 3c 54 93 bc 70 4a e6 bd
       0.0119101405 0.056751877 -0.017984502 -0.112446666
0000a0 70 ee 7a bc 38 4e b1 3d 60 3d 56 3c 72 9b 43 bd
       -0.015315637 0.08657497 0.013076156 -0.047755666
0000b0 b2 a4 eb 3d 20 e1 e3 3c ca cd db 3d 40 9c 96 3b
       0.115060225 0.027817309 0.107326105 0.004596263
0000c0 48 26 46 3d 6e b4 0d be 30 6e ca 3c aa 98 cc bd
       0.04837635 -0.1383836 0.024710745 -0.09990056
0000d0 8b 16 0f 3e f4 64 34 bd ad 01 90 bd 00 43 f4 3a
       0.13973443 -0.04404159 -0.0703157 0.001863569
0000e0 72 34 c7 3d 11 c4 ea bd 20 77 ae 3c 0a c0 a6 bd
       0.097268 -0.11463178 0.021297038 -0.08142097
0000f0 74 d9 88 3d e2 34 b9 bd 68 9f 58 3d 9e 40 24 bd
       0.06682101 -0.0904329 0.052886397 -0.040100686
000100 a0 65 8f bc 81 ad 87 bd 92 61 ea 3d 53 5b b6 bd
       -0.017504513 -0.0662489 0.11444391 -0.089041375
000110 c0 ca 1f bb 8a ec b1 3d c4 13 2c 3d 80 9b 3c 3b
       -0.0024382323 0.08687694 0.042011037 0.0028779209
000120 00 c0 fe bd 00 4a 92 ba 1a 07 a8 3d 14 d0 4e bd
       -0.12438965 -0.001116097 0.082044795 -0.050491408
000130 e5 b5 84 bd 35 3e 81 bd a0 f5 05 3c a0 b4 87 bd
       -0.06480006 -0.06310693 0.008176237 -0.06626248
000140 cc ca ab 3d b0 e7 60 bc 24 6d 0d bd 34 33 8e bc
       0.0838829 -0.013727114 -0.034527913 -0.0173584
000150 6e dc e2 3d 8e 65 ee 3d d8 57 22 3d 8a d8 ff 3d
       0.110772 0.11640464 0.039634556 0.124924734
000160 aa 87 d0 3d 57 b7 05 be b2 1f ef bd 78 ad c5 bd
       0.10182126 -0.1305822 -0.11675967 -0.09652227
000170 77 3e 83 bd 02 17 b5 bd f0 f8 85 3d 58 c2 3a 3d
       -0.064083986 -0.08842279 0.06541622 0.045595497
000180 5c 18 8d 3d a3 d0 05 3e ef 7c 00 be ae 0a ab bd
       0.06889412 0.1306787 -0.12547658 -0.08351646
000190 86 51 e4 3d f4 79 38 bd 7d 4b 06 be 8a ce 0a bd
       0.11148362 -0.04503818 -0.13114734 -0.033888377
0001a0 10 74 d1 bd 20 e4 35 3c d8 1f 84 bd a6 a7 a1 3d
       -0.10227215 0.0111017525 -0.06451386 0.078933045
0001b0 91 61 df bd 52 21 f4 3d 70 e0 ce 3d 50 ae e9 3c
       -0.10907281 0.11920418 0.10101402 0.028525501
0001c0 8f 8b 0e be 47 27 0f 3e c1 2f f2 bd 44 06 01 bd
       -0.13920425 0.13979827 -0.118255146 -0.031500116
0001d0 d8 aa 5f 3d c0 fa 32 3d 1d d6 ac bd 00 46 eb 3a
       0.05460629 0.043696165 -0.08439276 0.0017949939
0001e0 be 6e 66 bd 62 5f 7d bd a0 0b a0 3d d1 9a 06 3e
       -0.056257956 -0.061858542 0.07814717 0.13144995
0001f0 40 7c 7f bd c7 24 d9 bd 08 8c 1e 3d 10 58 3e 3c
       -0.062374353 -0.10602718 0.038707763 0.011617675
000200 94 bf df bd 05 87 fd bd 5c 8e df bd e4 c7 60 bd
       -0.109252125 -0.123792686 -0.10915825 -0.05487813
000210 62 35 be 3d b0 51 58 3c 38 5c f3 bc a0 6a 3a 3d
       0.09287526 0.01320307 -0.02970706 0.04551184
000220 41 93 0d be d8 93 7c 3d f4 04 df bd a6 fd e5 3d
       -0.13825704 0.061664432 -0.108896166 0.1123002
000230 38 c6 94 bc 4b d7 09 3e d8 27 c5 bd 40 e1 9a bc
       -0.018160924 0.13461034 -0.0962674 -0.018906236
000240 00 ea 8f b9 1d ad 09 3e a0 85 de 3c 5c 54 58 bd
       -0.0002744943 0.13444944 0.027163327 -0.052814826
000250 ac c6 a4 bc ca dc f7 3d 20 d7 09 bd c0 4e 74 3c
       -0.020114265 0.12102659 -0.033652425 0.014911354
000260 64 1b ac 3d 95 3b d8 bd 90 3d a5 bc b0 dc 6c bd
       0.08403662 -0.10558239 -0.020170957 -0.05782765
000270 74 b4 b5 3d d8 1b d9 3d 66 0f f8 3d 2c 0c cd bd
       0.08872309 0.10601014 0.12112312 -0.10012087
000280 22 56 0b be 00 17 e9 bb aa e2 c4 3d 0e 3e df 3d
       -0.13607076 -0.0071133375 0.09613545 0.10900508
000290 3e fe c0 bd 67 c8 0a 3e c0 14 5a 3c 16 6e e5 3d
       -0.09423493 0.1355301 0.013310611 0.11202638
0002a0 94 59 05 bd 84 6e c8 bd e0 ae b5 3c 48 4e 87 bd
       -0.03255613 -0.09786704 0.022178113 -0.06606728
0002b0 2a ed 94 3d 2b cd cd bd e4 15 42 3d b9 a4 ca bd
       0.07271798 -0.10048898 0.047384158 -0.098946996
0002c0 a6 68 fd bd 89 b8 f2 bd bc b1 02 bd d0 b6 5b bc
       -0.12373476 -0.118516035 -0.031907782 -0.013410285
0002d0 1c e5 66 3d 88 be db 3d 9d cf 01 be a0 a5 07 3d
       0.05637084 0.107297 -0.12676854 0.033116937
0002e0 3c 55 4e bd 98 10 bc 3d 9c 08 b1 3d c4 32 61 3d
       -0.050374255 0.091828525 0.0864422 0.054980054
0002f0 9c 88 4f 3d dd 1a 03 3e 50 da 1b 3c 24 12 98 3d
       0.05066739 0.12803216 0.009512499 0.07425335
000300 b0 63 b6 3c 4e 21 aa 3d 58 38 2f bd 68 a6 a8 3c
       0.022264332 0.083071336 -0.042778343 0.020587161
000310 6d 1b f0 bd f2 00 76 bd e8 24 fe 3c f8 51 a7 3d
       -0.11723981 -0.060059495 0.031023458 0.08169931
000320 56 5e ed 3d c0 d7 18 3d 20 11 5c bd d6 d9 e6 3d
       0.11590259 0.03731513 -0.05372727 0.11272018
000330 28 38 72 3d 42 a2 d6 bd c4 d9 d0 bc 06 ec 09 be
       0.059135586 -0.10480167 -0.025494464 -0.13468942
000340 38 ad b6 bc 0c e4 8e bc b4 8c 91 bc 9a 3d 7b bd
       -0.022299394 -0.017442726 -0.017767288 -0.061338045
000350 e0 a1 27 bc ec bf 9b bc 70 58 30 3d ab a3 f0 bd
       -0.010231465 -0.019012414 0.04305309 -0.11749967
000360 76 9a f1 3d 34 5a 0d 3d 88 bd c1 bc 50 de 20 3c
       0.11797039 0.034509853 -0.023649946 0.009818628
000370 64 ae 8e 3d f8 40 0e 3d 6c 33 77 3d ec 99 db bc
       0.06966856 0.034729928 0.060351774 -0.026806794
000380 7e 39 9e bd 6a e2 d4 3d 5d 10 02 3e 80 2b 7f 3b
       -0.077258095 0.103947476 0.12701555 0.003893584
000390 a8 c1 ce bd 8a 43 b7 bd cc 18 9b 3d 58 c7 59 3d
       -0.10095531 -0.08948429 0.07573089 0.053168625
0003a0 c0 ae f7 3b f0 ce 0c bc d6 9f c8 bd 40 a6 cd bd
       0.0075586736 -0.00859426 -0.09796111 -0.10041475
0003b0 6a 46 99 3d f5 78 87 bd e8 7f 64 bd 2b d1 07 3e
       0.074841335 -0.066148676 -0.055786043 0.13263385
0003c0 e8 06 d6 bd a0 9a 8b bb 30 dc 9f bd 7a 80 27 bd
       -0.10450536 -0.004260376 -0.07805669 -0.04089401
0003d0 f0 2f 53 3d 30 40 7d bd de 49 ed bd 7e 3c e2 3d
       0.05155939 -0.061828792 -0.11586355 0.11046694
0003e0 0e bc d5 3d 00 85 c8 ba 00 10 c7 3c 6e 9d 82 3d
       0.10436259 -0.0015298426 0.024299622 0.063776836
0003f0 0c ff 8d 3d 17 e7 0f 3e 12 91 7c bd 77 95 0f 3e
       0.06933412 0.14052998 -0.061661787 0.1402186

lstm.bias_ih_l0 f4 [200]
000000 a7 bb 72 bc 65 b1 ed 3d 64 94 e4 bc 92 11 83 bd
       -0.014815248 0.11606101 -0.02790279 -0.06399836
000010 78 e8 43 3d 58 e4 19 be 05 1a 52 3d 29 9f 8e 3d
       0.04782912 -0.15028512 0.051294345 0.06963951
000020 cf 61 76 bc 4c 1a 81 3e 0f bc 8c 3c e1 bd 1b ba
       -0.015037968 0.25215375 0.017179517 -0.0005941075
000030 8b 39 12 3d e3 19 28 3e b3 3d 01 bd 28 e5 a6 3d
       0.03569941 0.16416125 -0.03155298 0.08149177
000040 2e ae 28 bd 5c 47 5d 3d 2a ab 0c 3e 3d 72 5e bc
       -0.041181736 0.05402313 0.13737169 -0.013577041
000050 99 5b 89 bd 33 e7 9c 3d d0 10 fd bc 55 e9 13 3e
       -0.06706924 0.07661285 -0.030891806 0.14444478
000060 59 b4 2a bb 05 c2 0b 3d 45 08 08 3c be 8b 87 3d
       -0.0026047437 0.03412058 0.008302753 0.066184506
000070 b3 ad 22 bc 53 e2 17 3e 88 d8 8a bd 40 ea 61 b9
       -0.009929108 0.1483243 -0.06779581 -0.00021544937
000080 03 aa 6c 3e 00 d5 f9 bd 19 88 58 3e 6c 18 09 3e
       0.2311173 -0.1219883 0.21145667 0.13388222
000090 ca aa 01 be ce 77 0c 3c 19 19 71 3d 1d 35 02 3e
       -0.12662807 0.008573486 0.058861826 0.12715574
0000a0 68 8c f7 3c 91 41 37 3e 8e 42 a9 3d 19 ec 8f 3d
       0.030218318 0.17896105 0.082646474 0.07027454
0000b0 6c aa 6b 3e a7 a3 40 bd d4 d9 89 bd ca e0 f6 bd
       0.2301423 -0.04703107 -0.067310005 -0.12054594
0000c0 c2 b3 a9 bc 6e f8 00 3d f0 51 2e bd d8 e8 c9 3c
       -0.020715598 0.03148692 -0.04255861 0.024647161
0000d0 1a f1 bd 3d f0 3a 30 3d 5e 11 f4 3d a0 d5 9b bc
       0.09274502 0.043024957 0.11917375 -0.019022763
0000e0 d8 49 89 3d 69 a9 0d 3e c0 2f 7d bc 80 26 a1 3a
       0.06703538 0.13834156 -0.015453279 0.0012294799
0000f0 68 a7 58 3d 63 f5 06 3e 99 0b c1 bd 10 0e 2d 3d
       0.052894026 0.13179545 -0.0942604 0.04224974
000100 9c ee 39 bd 06 ef f9 3d df c5 89 bd 00 a1 ff 3c
       -0.04539357 0.12203793 -0.06727194 0.0312047
000110 48 e3 f7 3c 74 cb d4 3d e4 d4 ce 3d 10 f3 4e bd
       0.030259743 0.10390368 0.100991994 -0.05052477
000120 d8 eb d1 bd cc 47 ca bc d4 46 d4 bc 80 34 b0 3c
       -0.10250062 -0.024692439 -0.02591268 0.021509409
000130 66 0b b3 bd 50 53 a6 3d d8 fd 8e 3c 40 be 67 3d
       -0.087424085 0.08121359 0.017455027 0.05657792
000140 11 de 0f 3e 34 b3 6b 3d c7 c2 de bd 70 8d 0b 3d
       0.14049555 0.05754395 -0.108769946 0.034070432
000150 d4 85 22 bd 9a 79 92 3d 95 ba 00 3e 90 f1 c8 3c
       -0.03967841 0.071521 0.12571175 0.024529248
000160 66 ce de bd 2a 0a 98 bd d8 8c fe 3c 04 ad 0e 3d
       -0.10879211 -0.07423814 0.031073019 0.03483297
000170 84 5e 4e 3d c0 fc 5c bd 7b 3c e6 bd 5d fd f2 bd
       0.050383106 -0.05395198 -0.112420045 -0.118647315
000180 90 4b 6e 3c 30 4f 32 3d c0 ca b5 bb 94 06 14 bd
       0.014544383 0.04353255 -0.0055478513 -0.036139086
000190 20 5e 2c be be b4 ac 3d 29 b5 3a 3d 79 b8 e4 bd
       -0.16832781 0.08432911 0.045582924 -0.11167998
0001a0 d8 d2 78 bd 96 ba f8 3d 0e 97 75 3d 38 3e 01 be
       -0.06074795 0.121449634 0.05995851 -0.12621391
0001b0 ec 25 b1 bd fd fd 0f 3e 8b 11 11 bd e5 c8 04 be
       -0.08649811 0.14061733 -0.03541712 -0.1296726
0001c0 23 a0 af bd cb c9 89 bd 43 06 ba 3d 61 6a 3f 3d
       -0.085754655 -0.06727942 0.090832256 0.04673231
0001d0 51 9d e4 3d 51 7d ff 3d f3 58 03 be 89 59 9a bb
       0.11162818 0.12475074 -0.128269 -0.0047103805
0001e0 c2 bf c9 bd 64 18 28 bd 1e cb 97 bc 77 08 1d be
       -0.09851028 -0.041038886 -0.018529471 -0.1533526
0001f0 66 a4 3f 3d 17 fd f9 3d d5 74 d0 bd b0 f8 70 3d
       0.046787642 0.12206476 -0.10178534 0.058830917
000200 16 e5 f2 bd da e8 97 3c 6c a4 d1 3d 48 d8 8f bd
       -0.11860101 0.01854365 0.10236439 -0.07023674
000210 6c 39 9c bd e3 31 c3 3d 0f 74 13 3d b0 22 6b 3d
       -0.0762814 0.095309995 0.035999354 0.057406127
000220 77 71 8c bc d1 9d e0 3c 26 72 f5 3c 8d 11 fe bd
       -0.017143948 0.027419003 0.029961657 -0.12405691
000230 24 bd 85 bd 80 47 e2 3c c9 6e 62 bd 13 9d da 3b
       -0.06530216 0.027621984 -0.055281434 0.0066715567
000240 62 28 1f 3e d2 09 b7 3c 1f 04 10 be e2 0a 73 bd
       0.15542749 0.02234355 -0.14064072 -0.05933655
000250 9b 98 38 bd 1e e4 76 3d 53 07 1e 3e e5 88 10 3b
       -0.04506741 0.060276143 0.15432481 0.0022054252
000260 00 d4 4b 3e 7a d0 68 3d be dc bb 3d ea 68 cd 3d
       0.1990509 0.056839444 0.091729626 0.100297764
000270 e2 28 13 3e fc b1 c1 3d 30 5b e0 3b e9 1b 47 3e
       0.14371064 0.09457776 0.006846808 0.1944424
000280 64 a1 ca 3d d3 3c 3a 3c ab 8d 07 3e f4 bf 3b 3e
       0.09894064 0.011367041 0.13237636 0.18334943
000290 f1 93 d8 3d 48 d1 11 3e 52 20 cf 3d 2b 52 46 3e
       0.105750926 0.1423999 0.101135865 0.19367282
0002a0 e4 34 02 bc 35 56 12 3e 30 be e2 3d 3c 5f 3c 3e
       -0.00794718 0.14290698 0.11071432 0.18395704
0002b0 e6 fe 2a bb 7d 9c e5 ba 34 34 09 3e a2 9e 81 3e
       -0.0026091873 -0.0017517951 0.1339882 0.2531634
0002c0 f4 e6 97 3d 1c 54 73 3d 58 19 4e 3d 63 0f c1 3d
       0.07417098 0.059406385 0.05031714 0.09426763
0002d0 30 d7 b6 bc 14 39 af bd 80 ae 7d 3e 52 9a cb 3b
       -0.022319406 -0.08555809 0.24773598 0.006213465
0002e0 f9 8c 90 3d 6b f6 54 3e c4 55 86 bd a0 bc 47 3e
       0.070581384 0.20797126 -0.06559327 0.19505548
0002f0 16 c1 86 bd 90 80 60 bd 68 4e f0 bd f8 3a f3 3d
       -0.06579797 -0.054810107 -0.11733705 0.11876482
000300 9a a6 95 bd c5 1e 2f 3d c1 a3 b4 3c 49 c7 81 3d
       -0.07307167 0.042753953 0.02205074 0.06336839
000310 91 be cc bc 9c 97 c4 3d 8f de 3c bd 17 1c e8 3d
       -0.024993213 0.0959923 -0.046110686 0.11333483

lstm.bias_hh_l0 f4 [200]
000000 6c 3d bb bd 18 f5 8d 3c 29 0f 54 bd d0 2e 34 3e
       -0.09142575 0.017328784 -0.05177227 0.17595983
000010 9c ce 38 3d 14 7f 9f 3d 2e 42 20 bd 2b e5 15 3c
       0.045118913 0.0778791 -0.039125614 0.009148876
000020 10 3a 2d 3e 24 e5 a0 bb fc ab 22 3e 5f f3 12 3e
       0.1691668 -0.004910128 0.1588592 0.14350651
000030 31 90 c4 bd 20 bb 97 3d 11 7c a0 bd 65 b8 15 3e
       -0.09597815 0.07408738 -0.07836164 0.14621122
000040 7b 40 03 3e cb 73 c4 3d 1d af 6e bd 32 88 49 bd
       0.12817566 0.09592398 -0.05827247 -0.04920215
000050 fa 8a 27 3d 71 d8 7a 3c 7a 28 17 bd 10 30 5c 3d
       0.040904023 0.015310393 -0.036903836 0.053756773
000060 35 9d 1a bd 75 0e 40 3e 94 ba 84 3e 79 dc 42 3d
       -0.03774758 0.18755515 0.25923598 0.04757354
000070 0a fb ec 3d f2 f3 d8 3d e9 d1 16 3e 0d c6 3e bd
       0.115713194 0.10593404 0.14728512 -0.046575595
000080 ef 19 c5 3d f7 47 e3 bd be a9 ef 3d 65 bb 02 3e
       0.09624087 -0.110977106 0.11702298 0.12766798
000090 51 a4 90 3d a4 be fc 3d 00 9a 17 bd 79 fe d4 3c
       0.07062591 0.12341049 -0.0370121 0.026000248
0000a0 d4 de 6e bd 16 e4 31 3e 55 85 ae bd 6b 63 26 3e
       -0.058317974 0.17372164 -0.08521525 0.16248862
0000b0 a0 5d 3f 3e c5 d5 29 be ee 7c ff 3d 97 6c 1a bd
       0.18688059 -0.16585453 0.12475 -0.037701216
0000c0 ba 60 69 bd a6 60 27 3e f2 77 16 bd 5b 9d c6 bd
       -0.05697701 0.16345462 -0.036735483 -0.09697982
0000d0 40 f6 6f bb 34 ec 76 bd 10 46 12 3d 32 14 6f bd
       -0.0036615282 -0.060283855 0.035711348 -0.05836887
0000e0 6a 30 15 bd 50 5f 3d bc fe c6 fa 3d 30 db ce 3c
       -0.036423124 -0.011558369 0.12244986 0.025251001
0000f0 53 7f 05 3e 8e 2f 8d 3d 7d 82 8c bd c9 36 97 bd
       0.13036852 0.06893836 -0.06860826 -0.07383496
000100 a0 94 f0 3c 3e bf 95 3d 76 c0 fb 3d b0 bd e5 3c
       0.029367745 0.07311867 0.122925684 0.028044552
000110 f8 3b 68 3d 47 96 d8 bd 0c 3e 6d 3d 80 58 5e 3b
       0.056697816 -0.10575538 0.0579205 0.0033927262
000120 4e db d1 3d 32 34 06 be 70 87 24 bd 13 a7 03 be
       0.10246907 -0.13105848 -0.040168226 -0.12856703
000130 cc 28 00 be 2e 58 40 bd a0 21 88 bb 20 41 b8 3b
       -0.12515563 -0.046959095 -0.004154399 0.005622998
000140 26 8f 94 3d 63 86 a1 bd 6c 50 40 3d 82 c6 f4 bd
       0.07253866 -0.0788696 0.046951696 -0.11951925
000150 64 91 e0 bd c0 3c f2 3b 1c 02 35 bd fe 8e 01 be
       -0.10965231 0.007392496 -0.044191465 -0.12652203
000160 08 d8 a0 3c 20 8b c5 3c 9c 9a c5 3d a0 0a 69 bc
       0.019634262 0.024114192 0.0964863 -0.014223725
000170 c0 22 77 bb d4 e6 01 3d bd 90 8a bd a4 82 6c 3d
       -0.0037709922 0.031714275 -0.06765888 0.057741776
000180 98 51 90 3d ee f9 6c bd c8 06 db bc c4 9b 10 be
       0.07046813 -0.05785554 -0.026736632 -0.1412192
000190 16 d4 1c be ea 38 93 3d 9a 18 b4 bd c2 08 76 3d
       -0.1531528 0.0718859 -0.08793755 0.060066946
0001a0 73 9d 06 bc b0 c3 58 3c c0 c7 35 bc 74 53 76 bd
       -0.00821625 0.013230249 -0.011094987 -0.06013818
0001b0 d8 a0 13 be fb ea f1 bc 4f 51 e9 3c 14 07 a8 bd
       -0.14416826 -0.029530993 0.028481154 -0.08204475
0001c0 5e 75 89 3b e5 f7 ca bc 47 c6 e2 bd 41 d8 e3 bd
       0.0041948995 -0.024776408 -0.11072975 -0.111252315
0001d0 e5 c0 e6 3d 8d fe b5 bd 3f 31 a3 3d 4e 81 91 bd
       0.112672605 -0.08886442 0.07968377 -0.07104741
0001e0 0a 57 43 3d 22 28 eb 3d 55 a3 7f 3c 9a 21 4e bc
       0.04769043 0.11482264 0.015602906 -0.012581253
0001f0 af d3 9a bd fb 7b 8e bd 9b af bc 3d a6 85 12 3d
       -0.07559907 -0.06957241 0.092131816 0.03577199
000200 3e 4a 49 bc 58 55 23 3d 33 00 b2 bd 91 50 11 be
       -0.012285767 0.039876312 -0.08691444 -0.1419089
000210 ed 7c 0f be 0b c2 a5 3d 10 d0 f8 3d 5d 9d f3 3d
       -0.14012499 0.080936514 0.1214906 0.11895249
000220 27 f4 9a bd df 08 aa bd f6 38 0e 3e 9e 68 8e 3d
       -0.075660996 -0.08302473 0.13888916 0.06953548
000230 e6 43 e9 bc 24 e1 1c 3e 3f 77 99 bd c9 0a f3 bc
       -0.02847476 0.1532026 -0.074934475 -0.029668229
000240 9a d3 d4 bd f5 ec a0 3d 34 87 7d 3c 25 17 0d 3e
       -0.10391922 0.07857696 0.0154741295 0.1377836
000250 71 97 b0 bd ea fe b5 bd b5 04 96 3d 7a 75 29 bd
       -0.08622635 -0.088865116 0.073251165 -0.0413718
000260 1c 49 25 3e d8 bb c1 3d ef 48 60 bd b9 d6 78 bd
       0.1614117 0.094596565 -0.054757055 -0.06075165
000270 6f 19 cd 3c cc 3e bc bd 5a 8c aa bc d6 8f 4a 3c
       0.025036542 -0.09191665 -0.020818878 0.012363395
000280 29 22 a2 3c b4 1d 07 bd 07 e9 01 3e 5c 65 5d 3d
       0.01979168 -0.03298731 0.12686549 0.054051742
000290 d9 4e 9b bc 71 3b d2 3d ee a4 7d bb 46 4b 53 3d
       -0.018958496 0.10265244 -0.0038703042 0.05158546
0002a0 68 57 2b 3e 4b cb 93 bd d9 c9 0e 3c 81 b3 38 3d
       0.16732562 -0.072165094 0.008715116 0.045093063
0002b0 62 6a 8f 3d 6d 16 13 3e 72 b6 ad bc 66 bb 3d 3e
       0.07002713 0.14364024 -0.02120516 0.18528518
0002c0 e0 ad cd 3d 51 7e 3d 3e 8b e0 e6 3d b5 cc 72 3c
       0.1004293 0.18505217 0.11273297 0.014819314
0002d0 68 57 11 bd 67 36 b8 3c 11 e1 29 3c 8f 3d f5 bd
       -0.035483748 0.022486879 0.010368601 -0.11974632
0002e0 c8 66 16 3e f5 0f 5c 3e 10 dc d9 bd 40 59 a9 3d
       0.14687645 0.21490462 -0.10637677 0.08268976
0002f0 fe 8f a9 3d a2 e4 70 bd dc 0f a0 3d 26 43 65 3b
       0.082794175 -0.05881179 0.07815525 0.003498265
000300 57 ce d3 bc 46 94 7b 3a cf 32 c5 3c 70 f8 fb bd
       -0.025855226 0.00095969846 0.024072079 -0.12303245
000310 a0 f6 e3 3d 12 4c 31 be 36 5d d7 3d 26 47 44 3d
       0.11131024 -0.17314175 0.105158255 0.047919415

lin.weight f4 [10, 50]
000000 8b 78 36 bb 90 32 01 bd 52 05 a0 3d 38 8a b1 bc
       -0.0027842845 -0.03154236 0.07813515 -0.021672353
000010 36 5e 43 be 5c 69 9b bc bc b8 0a 3e 88 84 1f bd
       -0.19078907 -0.018971138 0.13547033 -0.03894475
000020 9b ff 12 3e 0a 4c 5e be 45 a8 03 be 3a 67 3f 3e
       0.14355318 -0.21708694 -0.12857158 0.18691722
000030 37 b8 0c bd 76 b6 1b 3d 89 1c dc 3d 11 7a 1b be
       -0.03435537 0.038015805 0.1074763 -0.15183283
000040 bc 55 41 3c 42 f5 07 3c 1a a7 a3 bd a7 66 85 bd
       0.011800226 0.00829822 -0.079908565 -0.0651372
000050 51 9f 00 3e 37 dc 0a 3b dd 35 6e bd 57 75 fb 3d
       0.12560774 0.0021188387 -0.058156837 0.1227824
000060 ee e0 0b be 23 64 42 3e aa bd 58 bc 80 da 51 3d
       -0.13660023 0.18983512 -0.013228813 0.05123377
000070 e7 c5 b5 bd d6 63 2f bb 60 76 f7 3d e5 17 76 3d
       -0.088756375 -0.0026762388 0.12083125 0.06008138
000080 29 41 12 3d 46 3a 78 3c 08 fc 37 3d 33 7c 2f 3e
       0.035706673 0.015150612 0.04491809 0.17137222
000090 a4 87 fc 3d a5 29 6b be de b5 35 3e 92 ce 1a be
       0.12330559 -0.22965105 0.17745158 -0.15117863
0000a0 56 95 1f bd 6f 95 64 bd 63 0a 9d bd b5 0e e9 bc
       -0.038960777 -0.055806573 -0.07667997 -0.028449396
0000b0 3e a3 68 be 4e f5 e2 3c 57 ac e0 bd e9 5e de 3d
       -0.22718522 0.027704861 -0.10970371 0.108579464
0000c0 2d 93 a1 3d 8d f3 ba bd 5b 07 aa bc 9b 0f 30 3d
       0.078894 -0.09128485 -0.02075546 0.042983633
0000d0 de 46 0d be 01 d2 e1 bc 9d f4 c5 bd a1 37 e7 3d
       -0.13796565 -0.027565958 -0.09665797 0.11289907
0000e0 27 97 c8 3d f5 94 85 bd e4 cc 12 be 20 ff 46 3e
       0.09794455 -0.06522552 -0.14335972 0.1943326
0000f0 f5 09 40 be 24 d7 ab bd 66 c9 d2 bc 88 1d 34 be
       -0.18753798 -0.08390644 -0.0257308 -0.1758939
000100 c4 d8 d5 3d f3 fb f2 bd 3f cf 11 bd 4e 03 01 bd
       0.104417354 -0.11864462 -0.035598036 -0.031497292
000110 d4 18 44 be 50 61 18 be 14 6d c4 3d 1b fc 2c be
       -0.19150096 -0.14880872 0.095911175 -0.16893046
000120 98 1f c4 3c ee 7a 1a 3d c3 6c df bc ec 5c ff bd
       0.023940846 0.03771489 -0.027273541 -0.12468895
000130 cb f3 44 be 91 f1 26 3e 9d 18 7a bd 3b 56 d9 3d
       -0.19233625 0.16303088 -0.06105863 0.1061215
000140 38 8d ff bc d5 39 8d bc 27 7b c9 3d e1 ea df bd
       -0.031195268 -0.01723949 0.098379426 -0.109334715
000150 de 05 3c 3e e0 10 ad bc cb 2b 46 bd 5c e0 d4 3c
       0.18361613 -0.02112621 -0.048381608 0.02598589
000160 7c fb e2 bc 1f 8f 9b 3c a7 ed e4 bd 46 79 c8 3d
       -0.027707808 0.018989144 -0.11178141 0.09788756
000170 01 1d 6b bd 75 27 c2 3d b3 4d 05 3d 34 0a 89 bd
       -0.057400707 0.09480182 0.032544803 -0.06691399
000180 8d 26 9e 3c f9 ec ac 3d ee 67 14 be 4f db 27 bd
       0.019305492 0.084436364 -0.14492771 -0.040980633
000190 f7 e0 10 3e 16 0c fd 3d 94 f3 4c bd f0 e6 32 ba
       0.14148317 0.12355821 -0.05003698 -0.00068245735
0001a0 4e 80 c4 3d c5 02 9d bd a9 7f 87 bd fc 6a e1 3d
       0.09594785 -0.07666544 -0.06616146 0.11006734
0001b0 c4 a0 e8 3d 58 30 25 be b6 de 60 3d 06 b5 0c 3e
       0.113587886 -0.16131723 0.054899894 0.1374093
0001c0 56 d0 ac 3d b4 03 74 3c 3e 8d 1f 3d 28 02 6a bd
       0.084381744 0.014893461 0.03895306 -0.057130963
0001d0 d9 18 95 3c 0e 71 2d be 6a e7 de bd ed 98 f3 3d
       0.018200325 -0.16937658 -0.108839825 0.11894403
0001e0 08 8a ef bc 23 1a 46 3e 78 c9 85 bd 6b a6 04 3d
       -0.029240623 0.19345908 -0.06532568 0.03238527
0001f0 36 8a 3d bd a3 44 4b 3e d0 6e 1f 3e c9 48 25 3b
       -0.046274386 0.19850402 0.15569615 0.0025220385
000200 98 12 62 bd 90 b1 93 bd 18 f1 a5 3d 7c 91 c0 3d
       -0.055193514 -0.07211602 0.081026256 0.09402749
000210 e6 7c 8c bd 4f 85 39 3e 9f 6f fc bd 98 fa 87 3b
       -0.0685976 0.1811726 -0.123259775 0.004149746
000220 df 46 02 be c8 a3 60 be 72 92 ff 3d 6d 24 1a bd
       -0.12722348 -0.21937478 0.12479104 -0.037632395
000230 eb 41 bb bd 8e 4d a6 bc 13 ce d6 3d 57 49 eb bd
       -0.09143432 -0.020300653 0.10488524 -0.11488598
000240 9e 4d f6 bd 04 6b 4b 3d 00 a4 55 3c 94 56 3b bd
       -0.12026523 0.049662605 0.013039589 -0.045736864
000250 69 c2 11 be 42 40 1c 3d 37 4d 0c 3e f2 7d ea bd
       -0.14234318 0.03814722 0.1370133 -0.114498034
000260 25 13 69 3d dd 4b 23 3e 9a 7c 10 3d c0 d9 be 3c
       0.056903023 0.15946908 0.03527508 0.02329719
000270 90 ba 8e bc 31 47 d1 3c 1c cc aa 3c 71 cb cd 3c
       -0.017422944 0.025546642 0.02084928 0.025121422
000280 71 c8 a1 bd 86 77 17 3e 40 fb 20 bd da 6b ea bd
       -0.07899559 0.14791688 -0.03930211 -0.11446352
000290 3a 4e eb 3d 24 e7 cc 3d 6f 63 d5 3d f1 bf 1c be
       0.1148953 0.10005024 0.10419356 -0.15307595
0002a0 08 4a 3d 3d f0 fd d0 bc 28 7b 92 bd d3 72 f1 bd
       0.04621318 -0.025511712 -0.071523964 -0.11789479
0002b0 90 f4 ae bd 8f 3a ce bd 5d bd 12 3e b9 bc 1f bd
       -0.0854274 -0.10069763 0.14330049 -0.03899834
0002c0 a2 87 b7 3c 9b 83 ca bd 8a 85 ff 3c 16 63 23 be
       0.022403542 -0.09888383 0.031191606 -0.15955767
0002d0 15 ec 12 be 9e 5f 2c 3c c8 cf 1a 3e 74 72 d7 bd
       -0.1434787 0.010520844 0.15118325 -0.10519877
0002e0 08 2c 99 3d 9b e0 17 3c 82 31 df bc 88 80 e5 bd
       0.074791014 0.009269859 -0.027245287 -0.11206156
0002f0 de 35 48 3d 35 c2 bd 3b a8 df cf bc 08 1f 49 3c
       0.048879497 0.0057909735 -0.025375202 0.012275465
000300 a6 3c 27 bd 78 e9 2b 3d f1 82 a6 bd 75 c7 97 bc
       -0.040829323 0.0419707 -0.08130444 -0.018527726
000310 0d 81 50 3d 44 ab 8e bd f7 12 7a 3c da d4 a0 3c
       0.050904322 -0.0696626 0.015263311 0.019632746
000320 45 cd f6 3d 41 59 19 3e b1 65 f1 bb f3 51 59 3e
       0.12050871 0.14975454 -0.007366859 0.21222667
000330 d8 e4 0b bd 2c 96 a4 3d 72 12 d4 bd e1 bb 31 3e
       -0.03415379 0.080364555 -0.10355081 0.17356826
000340 69 fa 92 3d fd 5a bf bd 9f 26 25 bd ab 6d 12 be
       0.07176668 -0.093435265 -0.040320035 -0.14299648
000350 44 75 22 3d 91 ad 33 bc f4 38 a6 bc 94 c6 1b 3e
       0.039662614 -0.010966674 -0.02029083 0.1521247
000360 5d 6a 33 be 27 b4 12 bd 4b 0c 9a 3d bf d6 44 3d
       -0.17521043 -0.035816338 0.07521876 0.04805636
000370 de 9f 0d 3e 2f 11 3e be 26 a2 48 3e 6c 88 09 be
       0.13830516 -0.18561243 0.19593105 -0.13430947
000380 3e 04 3e 3e a7 d6 0b be c8 7e 32 be 68 1c 14 3d
       0.18556306 -0.13656102 -0.17431176 0.036159903
000390 6c ad 29 bd c4 98 b5 bd ac 7b f3 bc 80 48 f5 bd
       -0.041425154 -0.08867028 -0.029722057 -0.11976719
0003a0 4c 8b f2 3d 14 3c 1f be d4 4d 0f 3e d3 13 25 be
       0.11842975 -0.15550262 0.13994533 -0.16120844
0003b0 19 2b 4f bc ed 8c 54 3c 8d 3a 9f 3d e2 05 59 bd
       -0.012644553 0.012973052 0.077748396 -0.052984126
0003c0 0c e3 5d 3c d6 5e 83 3c a5 09 1e 3e 32 44 00 be
       0.013542902 0.016036432 0.15433367 -0.12526014
0003d0 d3 77 3f 39 66 fa f3 bc 74 5a f4 3d 6a c1 1b 3e
       0.00018259817 -0.029782485 0.11931315 0.152105
0003e0 a3 5e d5 3d 19 df 7e bd 9c 14 a4 3c fe 41 46 3e
       0.10418441 -0.06222448 0.020029359 0.19361112
0003f0 b1 b3 91 3d 8e 09 cf bc f5 e3 69 3d 80 59 ae bd
       0.071143515 -0.02527311 0.057102162 -0.085131645

lin.bias f4 [10]
000000 65 f3 66 bd ec e3 50 bd c5 c0 c4 bb 52 29 dd 3c
       -0.056384463 -0.050998613 -0.006004425 0.026997242
000010 e8 ba 55 bd a8 b9 7d 3d 9a e5 c3 bd 90 a7 0f bd
       -0.0521802 0.061944634 -0.095652774 -0.03507191
000020 7a 1c 13 bd 93 c8 19 3e
       -0.03591583 0.15017919
